rl_exercises/week_7/rnd_dqn_snapshot_1000.pth (torch, 367260 bytes, 36 tensors)

net.fc1.weight f4 [64, 8]
0	0x3e5d4b5a	0.21610776
1	0x3e06c0e7	0.13159524
2	0xbeca0b65	-0.39461818
3	0xbe9df979	-0.30854395
4	0x3de045cb	0.10950812
5	0x3e776f06	0.24163446
6	0xbea3b14b	-0.319712
7	0x3f073dd9	0.5282875
8	0xbdd07132	-0.1017784
9	0xbe191c35	-0.14952166
10	0x3ca783ae	0.020448532
11	0xbe85c623	-0.2612773
12	0xbf12bd76	-0.57320344
13	0xbf42d040	-0.76099014
14	0xbe8de54d	-0.27714005
15	0x3ea5bd54	0.32371008
16	0x3eaecf90	0.34142733
17	0x3de7434e	0.11292134
18	0xbeb095b7	-0.34489223
19	0xbd940f4c	-0.0722948
20	0x3ea7b18f	0.32752654
21	0x3ee77c96	0.4521224
22	0xbeb76909	-0.35822323
23	0x3e89188f	0.2677655
24	0x3dc5b93c	0.09654471
25	0xbf3ac711	-0.7296
26	0x3ef05264	0.4693786
27	0xbf1e8c98	-0.6193328
28	0xbeb341cc	-0.35011137
29	0xbec48139	-0.3837984
30	0x3e5f9e2a	0.21837679
31	0x3f1d1071	0.6135321
32	0x3df88d63	0.121363424
33	0x3c511e08	0.012763508
34	0xbdbac43e	-0.091194615
35	0xbf08d26a	-0.53446066
36	0xbe450cce	-0.19243166
37	0x3f203bfe	0.6259154
38	0x3ef6c646	0.48198146
39	0xbd4fcdf2	-0.050733514
40	0x3e227b1b	0.15867274
41	0xbea9897a	-0.331127
42	0x3e7a9935	0.24472506
43	0xbf1272ce	-0.5720643
44	0xbec47dc2	-0.38377196
45	0xbe3eb1ee	-0.18622562
46	0x3f1c963f	0.6116676
47	0x3e88fe22	0.26756388
48	0xbe2a31ca	-0.16620556
49	0x3e5d8ea7	0.21636449
50	0x3e9a2ed4	0.30113852
51	0x3ee7eedb	0.4529942
52	0x3c8dd511	0.017313512
53	0xbe8670ff	-0.26258084
54	0x3e8136b7	0.25237057
55	0xbe552b52	-0.20817307
56	0x3eba658d	0.36405602
57	0xbf00b8d6	-0.5028204
58	0xbead483d	-0.33844176
59	0xbe6663a6	-0.2249895
60	0x3ec3435a	0.38137323
61	0x3eca2403	0.394806
62	0xbf17e23a	-0.5932957
63	0x3e313579	0.17305554
64	0x3f0846b6	0.53232896
65	0xbe32413f	-0.17407702
66	0x3e124293	0.14283209
67	0x3dcb15f8	0.099162996
68	0x3e75b87d	0.23996158
69	0x3f0bcf18	0.54612875
70	0xbf2d042f	-0.6758451
71	0xbe9e13ca	-0.30874473
72	0x3e1775ac	0.14790982
73	0x3ea65e6b	0.3249391
74	0x3ef080b4	0.46973193
75	0x3e8156c4	0.2526151
76	0xbe8ec21c	-0.2788247
77	0xbf4250ce	-0.7590455
78	0xbe3e1f17	-0.18566547
79	0xbe627e4b	-0.2211849
80	0xbe421279	-0.1895236
81	0xbec933c9	-0.3929732
82	0x3ed6203c	0.41821468
83	0xbf1ae6d9	-0.60508496
84	0xbdb17043	-0.0866399
85	0xbee168c5	-0.44025245
86	0x3e82aec8	0.25523973
87	0x3dde2270	0.10846412
88	0x3e0b3966	0.13596115
89	0xbe566fd0	-0.2094109
90	0x3e04b862	0.12960961
91	0x3e3715fe	0.17879483
92	0x3e81962b	0.25309882
93	0x3e075ecc	0.13219756
94	0xbeb32945	-0.34992424
95	0xbe6ada76	-0.22934899
96	0x3efe26f7	0.49639103
97	0x3e3f856e	0.18703243
98	0xbe81d382	-0.2535668
99	0xbe91d15b	-0.28480038
100	0x3edd193d	0.43183318
101	0x3f059a2e	0.52188385
102	0xbf092a6b	-0.5358035
103	0xbe6babf1	-0.23014809
104	0xbec680e7	-0.3877022
105	0x3f0f1c3c	0.5590246
106	0xbd080ac9	-0.03321341
107	0xbefd078b	-0.49419817
108	0xbd1d2138	-0.038361758
109	0x3db76f17	0.089567356
110	0xbe6c81b3	-0.23096351
111	0x3cbc416c	0.022980414
112	0x3d686809	0.05673984
113	0x3e1843e1	0.14869644
114	0x3ee3f699	0.44524077
115	0xbf06dcac	-0.5268047
116	0xbe4b24ac	-0.19838208
117	0x3e19a217	0.15003239
118	0x3e86b58b	0.2631038
119	0xbdeec20e	-0.11658107
120	0x3e863eab	0.26219687
121	0xbf1551cc	-0.5832794
122	0xbde46053	-0.11151185
123	0x3dc78f83	0.097441696
124	0xbed705e9	-0.41996697
125	0xbec91b1d	-0.39278498
126	0x3e0dd582	0.13850978
127	0xbe305a97	-0.17222057
128	0xbcaf9267	-0.021432115
129	0xbee1582d	-0.44012585
130	0x3de403f6	0.11133568
131	0xbddb0d2f	-0.10695874
132	0xbeac2a57	-0.33626053
133	0x3d9ff6e1	0.0781076
134	0x3f27e958	0.6559043
135	0xbd14dee0	-0.036345363
136	0x3ec9597c	0.39326084
137	0xbe73708c	-0.23773402
138	0x3e0e771e	0.13912627
139	0xbc577a62	-0.013151737
140	0x3ece50aa	0.40295917
141	0x3f05f835	0.5233186
142	0x3f0f36b9	0.55942875
143	0xbd683a52	-0.056696244
144	0xbec32eb3	-0.38121566
145	0xbeb9ac3b	-0.36264214
146	0x3ea4570f	0.3209767
147	0xbd83894e	-0.06422673
148	0xbedb4591	-0.42826512
149	0xbf4f7db4	-0.8105118
150	0xbefb3ad5	-0.49068323
151	0x3d30ca08	0.043161422
152	0x3d8dda66	0.06926422
153	0xbf0dc078	-0.5537181
154	0x3ea107d8	0.31451297
155	0xbf10802c	-0.56445575
156	0x3df4678f	0.11933815
157	0xbf0bca32	-0.546054
158	0x3e85fd49	0.26169804
159	0x3e09d780	0.13461113
160	0xbe9e7c69	-0.30954292
161	0x3f32f846	0.69910085
162	0xbe2232ac	-0.15839642
163	0xbf147570	-0.57991695
164	0xbc0c9081	-0.008579374
165	0x3d3e2595	0.04642256
166	0xbe6786ef	-0.22610067
167	0xbd7e68f3	-0.062111806
168	0xbf18f755	-0.597524
169	0xbed82066	-0.42212218
170	0x3d2ba489	0.04190496
171	0xbeb3cb5e	-0.35116094
172	0x3f130fe5	0.5744613
173	0xbe7f4482	-0.24928477
174	0xbea35ce6	-0.31906813
175	0x3f003cd2	0.50092804
176	0x3d738747	0.059455182
177	0xbe4b4a2e	-0.19852516
178	0x3ecfd5cf	0.4059281
179	0xbeff6f48	-0.49889588
180	0x3dd4c1b3	0.10388508
181	0x3e771c98	0.24132001
182	0x3f1a64b2	0.603099
183	0x3dee850d	0.11646471
184	0x3efe715c	0.4969586
185	0x3d036498	0.032078356
186	0x3da94e16	0.08266847
187	0xbe64a51d	-0.2232861
188	0xbe982fcf	-0.29723975
189	0x3ed2fb3f	0.4120731
190	0x3f0268da	0.5094124
191	0xbcc81825	-0.024425576
192	0x3ddb10f8	0.10696596
193	0x3dee7fb3	0.116454504
194	0xbe97ec05	-0.29672256
195	0xbed27f04	-0.4111253
196	0xbd663ae7	-0.056208517
197	0x3ecf7674	0.4052006
198	0xbf116f85	-0.5681079
199	0xbdbafe2b	-0.0913051
200	0x3e8be063	0.2731963
201	0x3e7fd60a	0.24983993
202	0xbe72bd07	-0.2370492
203	0xbe91e442	-0.2849446
204	0xbe5c67f8	-0.21524036
205	0x3ecb566c	0.39714372
206	0xbedd026e	-0.43165916
207	0x3e1028c7	0.14078055
208	0x3e78ccb7	0.24296843
209	0x3df7a300	0.12091637
210	0x3e5a55fe	0.21321866
211	0xbea2db74	-0.31808054
212	0xbd6a5ac9	-0.057215486
213	0x3c3de733	0.011590767
214	0x3ebfde47	0.37474272
215	0xbdfb0de2	-0.12258507
216	0xbddbbdb5	-0.10729543
217	0x3d5b910a	0.053605117
218	0x3f0e1c05	0.55511504
219	0xbf036a2e	-0.5133389
220	0xbdbe2084	-0.092835456
221	0x3f00fdb3	0.50387114
222	0x3f0585a3	0.5215704
223	0xbe4dd39d	-0.20100255
224	0xbe980144	-0.29688466
225	0x3f1e07e2	0.6173078
226	0xbe877130	-0.26453543
227	0xbeefd237	-0.4684007
228	0xbe0a4169	-0.13501514
229	0x3ea29e22	0.3176127
230	0xbd840685	-0.06446556
231	0x3dbc08e7	0.091813855
232	0x3d1694fa	0.03676317
233	0xbd85e8a2	-0.06538512
234	0x3e8f75a1	0.2801943
235	0xbea4d4e7	-0.32193682
236	0x3c49f55f	0.012326567
237	0xbf39c0d8	-0.7255988
238	0xbdc1f251	-0.09470046
239	0x3ebfd2c9	0.37465504
240	0x3da9f955	0.082995094
241	0xbcba071f	-0.022708474
242	0xbc07d944	-0.008291546
243	0x3bbb100b	0.0057086996
244	0xbd229fe5	-0.03970327
245	0xbf4cf5b6	-0.80062425
246	0x3e67dab8	0.22642028
247	0xbe95b05f	-0.29236123
248	0x3d2b24a6	0.041782998
249	0xbdc6b43d	-0.097023465
250	0xbe18d97f	-0.14926718
251	0x3d11f170	0.035630643
252	0x3e82c694	0.25542128
253	0xbdbcecc5	-0.09224848
254	0xbe56f0b2	-0.20990255
255	0xbe05e55d	-0.13075776

net.fc1.bias f4 [64]
0	0x3dcbff72	0.09960832
1	0xbc0a998c	-0.00845946
2	0x3e62d057	0.22149788
3	0x3e56f992	0.20993641
4	0x3da646a5	0.08118943
5	0x3e29e71a	0.16592064
6	0x3e188b01	0.14896776
7	0x3e2d5300	0.16926193
8	0x3e9b58ec	0.3034128
9	0xbd1bbfaf	-0.0380246
10	0x3e510669	0.20412602
11	0xbe83211e	-0.25611204
12	0x3ba8cec7	0.005151603
13	0xbd7defc7	-0.061996248
14	0x3ef87822	0.48529154
15	0xbde18136	-0.11010973
16	0x3d31869a	0.043341257
17	0x3dc41f35	0.09576265
18	0x3ee3de9a	0.4450577
19	0x3ecaca3f	0.39607427
20	0xbe042e2d	-0.1290824
21	0xbd6c43bb	-0.05768178
22	0xbe34defa	-0.17663184
23	0x3e6389d1	0.22220542
24	0x3e4558f6	0.19272217
25	0xbd1d8f26	-0.038466595
26	0xbc0c7212	-0.008572118
27	0x3e4cc3a8	0.19996512
28	0x3dedbfba	0.116088346
29	0x3dec87fb	0.11549374
30	0xbe205ab3	-0.15659599
31	0xbe5542ac	-0.20826215
32	0x3e73ee7b	0.23821442
33	0x3f139e17	0.576631
34	0x3d23de02	0.040006645
35	0x3e6c6b38	0.23087776
36	0x3c85dd64	0.016340919
37	0x3f00de25	0.50338966
38	0xbeabbe97	-0.33543846
39	0xbeb95313	-0.36196193
40	0x3f034a0a	0.5128485
41	0xbceae842	-0.028675202
42	0x3d5dac8c	0.05411963
43	0x3e3823b7	0.17982374
44	0x3e356270	0.17713332
45	0x3da81f0e	0.08209048
46	0x3eac2da7	0.3362858
47	0x3e5e790f	0.21725868
48	0xbeb44fe7	-0.3521721
49	0x3d4728f6	0.048623048
50	0x3d8322cc	0.06403121
51	0x3ee7ff97	0.45312187
52	0xbe3ab663	-0.18233638
53	0x3f1319a1	0.5746098
54	0x3d6b09ef	0.05738252
55	0x3e2f8b9a	0.17143098
56	0x3efc9a90	0.49336672
57	0x3e39fcfc	0.18162912
58	0x3ef31fed	0.47485295
59	0x3ea904e4	0.33011544
60	0x3dbba6c4	0.091626674
61	0xbd835e88	-0.06414515
62	0x3c0d3fe3	0.008621189
63	0x3ed385b4	0.41312945

net.fc2.weight f4 [64, 64]
0	0x3cc5add3	0.024130737
1	0xbe44709e	-0.19183585
2	0x3e62fcc3	0.22166733
3	0x3e7c3167	0.2462822
4	0x3e517620	0.20455217
5	0xbccaca66	-0.024754714
6	0xbe37f9e2	-0.17966416
7	0x3e971f2a	0.29515964
8	0x3e37f2d1	0.17963721
9	0xbde66c77	-0.11251157
10	0x3c5cdfdb	0.013481106
11	0x3d426fc0	0.047469854
12	0x3e80526b	0.2506288
13	0xbe2d4ed9	-0.16924609
14	0x3d8b2a01	0.06795121
15	0xbe1e0487	-0.15431415
16	0x3d7574ce	0.059925847
17	0x3eb6253e	0.3557529
18	0xbd372ce5	-0.04472055
19	0x3dfb8a29	0.12282211
20	0xbec07f14	-0.37596953
21	0x3e9debf3	0.30844077
22	0x3ebbc17e	0.3667106
23	0x3ec9b829	0.39398316
24	0xbd6698d6	-0.0562981
25	0xbce8098a	-0.028324861
26	0x3d060507	0.03271964
27	0x3ea17d27	0.31540796
28	0xbe98e892	-0.29864937
29	0xbd6bb0dd	-0.057541717
30	0x3ae4b2b3	0.0017448276
31	0xbd3a6fe7	-0.045516875
32	0xbd207363	-0.03917254
33	0x3e8980c5	0.26856056
34	0xbe85e784	-0.26153195
35	0x3e115442	0.14192298
36	0x3ce4f5f6	0.027949315
37	0x3e5d5a3c	0.21616453
38	0x3d359d30	0.04433936
39	0x3dcf9384	0.10135558
40	0x3e8ed44c	0.27896345
41	0x3e987bc0	0.29781914
42	0x3e422957	0.18961082
43	0xbed33499	-0.41251066
44	0xbd0bd2fc	-0.034136757
45	0x3e97f4c6	0.29678935
46	0x3c447879	0.011991614
47	0xbb239972	-0.0024963287
48	0xbb912e66	-0.00443058
49	0x3e3e872c	0.18606251
50	0x3ea28656	0.31743115
51	0x3c2f575b	0.0107019795
52	0xbe0768e3	-0.13223605
53	0x3e497961	0.19675209
54	0x3e203504	0.15645224
55	0x3ea210b8	0.3165338
56	0x3eb87b2e	0.3603148
57	0xbe05c29a	-0.13062516
58	0x3e7f0816	0.24905428
59	0x3e8115c8	0.2521193
60	0x3e0ba672	0.13637713
61	0x3cf950ea	0.03043409
62	0x3d0183fb	0.031620007
63	0x3ecd459d	0.40092173
64	0xbe68b2fb	-0.22724526
65	0xbead886c	-0.33893144
66	0xbda22d6a	-0.07918818
67	0x3e3fb947	0.18723021
68	0x3e5776dc	0.21041435
69	0x3eb05319	0.34438398
70	0xbe22f33b	-0.15913098
71	0xbd82dd62	-0.06389882
72	0xbeba3cfe	-0.36374658
73	0xbee86c05	-0.45394912
74	0x3e68d3ab	0.22736995
75	0xbd51317c	-0.051072583
76	0xbe09abf1	-0.13444497
77	0xbe48d367	-0.19611894
78	0x3d9b6943	0.075884365
79	0x3d27932a	0.04091183
80	0x3eb2c4ed	0.34915867
81	0x3eac0854	0.33600104
82	0xbecb13c8	-0.3966353
83	0x3e6a9987	0.22910129
84	0xbde37960	-0.11107135
85	0x3e475e04	0.19469458
86	0x3ec84c6b	0.39120802
87	0x3e280b45	0.16410549
88	0xbed3d4ab	-0.4137319
89	0xbe8ad4c5	-0.27115455
90	0x3e708a29	0.23490204
91	0x3eb8f56b	0.3612474
92	0xbe66bc0e	-0.22532675
93	0x3e2839f4	0.16428357
94	0xbe4d55a6	-0.20052204
95	0xbc939528	-0.01801546
96	0x3e4f1a53	0.20224886
97	0xbe40adee	-0.18816349
98	0xbd48ea09	-0.04905132
99	0xbdccce71	-0.10000313
100	0x3d22c163	0.03973521
101	0x3e611853	0.21981935
102	0x3daf4fca	0.085601404
103	0xbd64254a	-0.055699624
104	0x3e957cb3	0.291967
105	0xbe6c531c	-0.23078579
106	0x3e184dd6	0.14873442
107	0xbf2fc5cc	-0.6866119
108	0xbf1719d1	-0.5902377
109	0xbd0a3b7b	-0.03374813
110	0xbec8bb35	-0.39205328
111	0x3d9ca601	0.0764885
112	0xbeb98ce0	-0.36240292
113	0x3e74ea17	0.23917423
114	0x3eba40f7	0.3637769
115	0xbef54168	-0.47901464
116	0xbb59b718	-0.0033220705
117	0x3ead1839	0.33807543
118	0x3e9514a7	0.2911732
119	0xbec81f7d	-0.39086524
120	0x3eb01171	0.34388307
121	0xbe281dd3	-0.16417627
122	0x3e7e2f69	0.24822773
123	0x3e710597	0.23537289
124	0xbe78af9d	-0.24285741
125	0x3ede3792	0.43401772
126	0x3e3676b1	0.17818715
127	0x3e81c0fc	0.25342548
128	0xbf1422e3	-0.5786573
129	0x3cbcbf1a	0.023040343
130	0xbeb5014f	-0.3535256
131	0x3eb27da2	0.34861475
132	0x3e40f7cd	0.18844528
133	0x3e9534a7	0.29141733
134	0xbd841aeb	-0.06450447
135	0xbeacf52f	-0.3378081
136	0xbf3bd45c	-0.7337091
137	0xbd3ffd2b	-0.0468723
138	0x3e9dc810	0.30816698
139	0xbcff6298	-0.031174943
140	0xbefaec77	-0.49008533
141	0xbf62c771	-0.88585573
142	0x3e6830d9	0.22674884
143	0x3e434421	0.19068958
144	0x3ecc5a8a	0.39912826
145	0x3d787c05	0.06066515
146	0x3c1d68b1	0.00960748
147	0x3e07cd45	0.13261898
148	0xbf6fadac	-0.9362438
149	0x3e119fea	0.14221159
150	0x3ed614ce	0.41812748
151	0x3df8ceff	0.12148856
152	0xbf4680a0	-0.77540016
153	0xbf51daee	-0.81974685
154	0x3e415295	0.18879159
155	0x3e8ce026	0.27514762
156	0xbf4dca79	-0.80387074
157	0x3e100308	0.14063656
158	0x3ca1e966	0.019764613
159	0x3dd9eaec	0.10640511
160	0xbac2e126	-0.0014868125
161	0xbf1186cc	-0.5684631
162	0xbf29e579	-0.6636577
163	0xbeb782e1	-0.3584204
164	0xbdcb234c	-0.09918842
165	0x3e743ee5	0.23852117
166	0x3dcaf7cc	0.09910545
167	0xbd33d99d	-0.043908704
168	0x3db5d600	0.08878708
169	0xbcb7c33c	-0.022431962
170	0x3e9c98c9	0.30585316
171	0xbf27da0c	-0.6556709
172	0xbf52d7f1	-0.8236075
173	0xbe9c0014	-0.3046881
174	0x3cc2c460	0.02377528
175	0x3e2a32ec	0.16620988
176	0x3e766de3	0.24065356
177	0x3e85cfac	0.26135004
178	0x3e6f9046	0.2339488
179	0xbf1c989b	-0.6117036
180	0x3de32d5e	0.110926375
181	0x3e7a7c2a	0.24461427
182	0x3e29076a	0.16506734
183	0xbeb4731c	-0.3524407
184	0x3e8b1bce	0.2716965
185	0x3db9b726	0.09068136
186	0x3dcc2478	0.09967893
187	0x3eafbdd6	0.3432452
188	0xbe696f73	-0.22796421
189	0x3e0dd63b	0.13851254
190	0x3e4ca03e	0.19983003
191	0x3ebb1420	0.36538792
192	0x3d98d7d7	0.07463043
193	0x3ea80cbe	0.32822222
194	0x3e8a129e	0.2696733
195	0xbdc43e37	-0.09582179
196	0x3dbbf783	0.091780685
197	0x3d2d21c7	0.04226854
198	0x3e0698e8	0.13144267
199	0x3e0d1a4e	0.13779566
200	0x3ecfbe29	0.40574768
201	0x3e6af155	0.22943623
202	0x3e2564b0	0.1615169
203	0xbdf5ae46	-0.11996131
204	0x3e195f24	0.149777
205	0x3cb4ab37	0.022054298
206	0x3ce51ed6	0.027968805
207	0x3cc73f7c	0.024322264
208	0xbe5d2581	-0.21596338
209	0x3e00390c	0.12521762
210	0x3e9a84db	0.30179486
211	0xbddb62a0	-0.107121706
212	0xbdba8d64	-0.09108999
213	0xbeae19f3	-0.34004173
214	0xbe3eefd9	-0.18646182
215	0x3d53ceac	0.05171077
216	0x3ed9fc09	0.425751
217	0x3ec16760	0.3777418
218	0xbe0bc944	-0.13650995
219	0xbdef3f03	-0.116819404
220	0x3c33b1d1	0.010967688
221	0x3b6e01e2	0.003631704
222	0x3e508c38	0.20365989
223	0xbd00e226	-0.031465672
224	0x3cad8a7b	0.021184197
225	0x3e760de8	0.24028742
226	0x3d4ad3f2	0.049518533
227	0x3e45287f	0.1925373
228	0xbe90736a	-0.28213054
229	0x3e335f3c	0.17516798
230	0x3dfe9006	0.12429814
231	0xbd45ea67	-0.048319247
232	0x3e4d98ff	0.20077895
233	0x3e5dcad1	0.216594
234	0xbc9b63cf	-0.01896849
235	0x3e415e75	0.18883689
236	0x3ef5c594	0.48002303
237	0x3e426b39	0.18986215
238	0x3e9a361c	0.30119407
239	0x3d73c498	0.05951366
240	0x3e338cca	0.17534176
241	0xbe823916	-0.25434178
242	0xbe80b635	-0.25139013
243	0x3eb42021	0.35180762
244	0x3eb13a34	0.34614718
245	0x3ba641b8	0.0050737523
246	0x3c9e90d7	0.019356174
247	0x3e9d0adb	0.30672345
248	0x3c8b4dd4	0.017004885
249	0x3e0ff4c2	0.14058211
250	0x3bc436aa	0.005987962
251	0x39ac795d	0.0003289682
252	0x3e9f272e	0.3108458
253	0xbe62a64b	-0.22133748
254	0xbe1fd11e	-0.15607116
255	0x3d9362b1	0.07196558

net.fc2.bias f4 [64]
0	0x3e2f192d	0.17099448
1	0x3cf51d2a	0.029921133
2	0xbd100201	-0.03515816
3	0x3e11f246	0.14252576
4	0x3c876662	0.016528312
5	0x3db969e3	0.090533994
6	0xbc0e3b6f	-0.008681162
7	0xbc8835e5	-0.016627261
8	0x3cee0018	0.02905278
9	0xbdaec7f0	-0.08534229
10	0x3d69ccd5	0.05708011
11	0xbdeaf35c	-0.11472198
12	0xbd514756	-0.051093422
13	0xbd2926af	-0.041296657
14	0x3e20a879	0.15689267
15	0x3deb3700	0.114851
16	0x3dc9d8e1	0.098558195
17	0x3d6a137f	0.0571475
18	0x3e44ebaf	0.19230531
19	0x3dda8835	0.10670511
20	0x3cf00b8c	0.029302381
21	0x3db8994a	0.090136126
22	0xbc057805	-0.008146291
23	0xbde6b488	-0.11264902
24	0x3d4e50e9	0.05037013
25	0xbe0a9bf0	-0.13536048
26	0xbdb8b979	-0.09019751
27	0x3d72bbd3	0.059261154
28	0x3e1e11f3	0.15436535
29	0xbdd4ebd0	-0.1039654
30	0x3e59b75d	0.21261354
31	0x3d912fec	0.070892185
32	0x3cf81432	0.030283067
33	0x3d96bea6	0.07360582
34	0xbcc867ec	-0.024463616
35	0xbdd8d404	-0.10587314
36	0x3de76981	0.1129942
37	0x3d9c4290	0.07629883
38	0xbe19e90f	-0.15030311
39	0x3d90f663	0.070782445
40	0x3de990be	0.114045605
41	0x3d804453	0.06263032
42	0x3df79f16	0.1209089
43	0x3bc436e5	0.0059879893
44	0xbca67e70	-0.020323962
45	0x3e5459fb	0.2073745
46	0xbd7c3bb2	-0.061580367
47	0x3e4651ed	0.1936719
48	0x3d8860d6	0.06659095
49	0xbdc3d58b	-0.095622145
50	0x3d863283	0.06552603
51	0xbdfc0c44	-0.12307027
52	0x3e1f9ca1	0.15587093
53	0x3ce85868	0.028362468
54	0x3ca7130f	0.02039483
55	0xbdf0f4a1	-0.11765409
56	0x3e2d54f1	0.16926934
57	0x3e093b85	0.13401611
58	0x3dd477c8	0.10374409
59	0x3b575806	0.0032858863
60	0xbe14d80e	-0.14535543
61	0xbdaef768	-0.08543283
62	0xbcecc76e	-0.02890369
63	0x3e32c03f	0.17456149

net.out.weight f4 [4, 64]
0	0xbe8bc17f	-0.27296063
1	0x3e9bfeec	0.30467927
2	0x3dcbb643	0.09946873
3	0xbe907d97	-0.28220817
4	0xbe53b579	-0.20674695
5	0xbebcfa7b	-0.3690985
6	0x3d886781	0.06660367
7	0x3d9fa432	0.0779499
8	0xbdc703b8	-0.09717506
9	0x3d1d0a4c	0.038339898
10	0xbe929cbf	-0.28635213
11	0xbd933616	-0.071880504
12	0xbe8f3ea1	-0.2797747
13	0xbd1ecd98	-0.03877029
14	0xbeaa7ffc	-0.3330077
15	0x3ddbcf5e	0.107329115
16	0x3eaa7eba	0.3329981
17	0x3ebd3ca6	0.36960334
18	0xbe42c4d1	-0.19020392
19	0xbe85a771	-0.2610431
20	0xbeb1be05	-0.34715286
21	0x3e0a0746	0.13479337
22	0x3e37cdcd	0.179496
23	0xbc3b2de0	-0.011424512
24	0xbe84efb5	-0.25964132
25	0x3dce44ba	0.10071702
26	0x3e3a7473	0.18208484
27	0xbec53fff	-0.38525388
28	0xbe80c49d	-0.25150004
29	0xbe9e4b2a	-0.3091672
30	0x3f33104b	0.69946736
31	0x3dc90c7d	0.09816835
32	0xbe97d1f1	-0.2965236
33	0x3cb10244	0.021607526
34	0xbe70eff8	-0.23529041
35	0xbddc4068	-0.10754472
36	0x3eef6106	0.4675371
37	0xbe3c7286	-0.18403062
38	0xbb009a2c	-0.0019623144
39	0xbe978ecf	-0.29601142
40	0x3e17fb19	0.1484188
41	0x3e861fdc	0.26196182
42	0x3eded92a	0.43525058
43	0xbe8c790f	-0.2743611
44	0x3e785d9b	0.24254458
45	0x3d87ee8f	0.06637298
46	0x3e6ec905	0.2331887
47	0xbe9ccd52	-0.30625397
48	0xbebab808	-0.3646853
49	0x3d1263ae	0.035739593
50	0x3dda9542	0.10673
51	0x3cbaab1f	0.022786675
52	0x3d4a167d	0.049337853
53	0xbcb85261	-0.022500219
54	0xbe60f496	-0.21968302
55	0x3d50a19c	0.050935373
56	0xbe6ec0d5	-0.23315747
57	0x3e2bb24b	0.16767232
58	0xbdb2041e	-0.086921915
59	0xbe8f5c1b	-0.27999958
60	0xbdbdb983	-0.09263899
61	0x3d14756d	0.0362448
62	0x3d7a1ead	0.06106441
63	0xbe9f1458	-0.3107021
64	0x3e979e13	0.2961279
65	0x3ec44939	0.38337114
66	0xbd361543	-0.04445387
67	0xbe537f09	-0.20653929
68	0xbebb2bc0	-0.36556816
69	0xbe5af4d3	-0.21382456
70	0xbbc544d1	-0.0060201664
71	0xbcebef8f	-0.028800754
72	0x3de3fc2a	0.11132081
73	0xbda3d93e	-0.0800042
74	0xbebd2e74	-0.36949503
75	0xbd359bfc	-0.04433821
76	0xbc90a34c	-0.017655991
77	0xbd6a1d54	-0.057156876
78	0x3e3b9c58	0.18321359
79	0x3d87363b	0.066021405
80	0x3e5436d2	0.20724037
81	0x3e2c03cd	0.16798325
82	0x3ec23904	0.37934124
83	0xbe8bd0e2	-0.27307802
84	0xbea0dc71	-0.31418183
85	0x3f1a4513	0.6026165
86	0x3d9a68d0	0.07539523
87	0xbd7a1240	-0.06105256
88	0xbe7c40ca	-0.2463409
89	0x3d8f7c68	0.070061505
90	0x3e16118c	0.14655131
91	0xbe0cfbd3	-0.13767938
92	0xbea52721	-0.32256415
93	0xbec6a9e7	-0.388015
94	0x3ea56a34	0.3230759
95	0x3dada7bc	0.084792584
96	0xbecf7b00	-0.4052353
97	0xbdd60980	-0.10451031
98	0xbe8beccc	-0.273291
99	0x3dff87cc	0.12477073
100	0x3e9aad8b	0.30210528
101	0xbeb92e3b	-0.36168084
102	0x3d849862	0.06474377
103	0x3dba9ba6	0.09111719
104	0xbeaad364	-0.33364403
105	0xbea3c414	-0.31985533
106	0x3eacdb17	0.33760902
107	0x3e1eb915	0.1550029
108	0xbe21410d	-0.15747471
109	0xbdccd9f7	-0.10002511
110	0x3de3c91d	0.11122344
111	0xbea189f3	-0.3155056
112	0xbe8b4310	-0.27199602
113	0xbd9cf95e	-0.076647505
114	0xbe454a49	-0.19266619
115	0xbd820955	-0.06349436
116	0x3e04aa3b	0.12955563
117	0x3b159b9e	0.002282835
118	0xbe471d0b	-0.19444673
119	0xbbcd99d6	-0.006274442
120	0x3df13fe1	0.11779762
121	0x3d25b817	0.040458765
122	0x3e97b622	0.29631144
123	0xbeb8e183	-0.36109552
124	0xbd61bcd5	-0.055111725
125	0x3ed8bbac	0.42330682
126	0x3df997d8	0.12187165
127	0xbe884e4b	-0.26622233
128	0xbe5c67d9	-0.2152399
129	0xbdc8f1d7	-0.09811752
130	0xbed0a307	-0.4074938
131	0x3c7e6665	0.015527342
132	0x3d1a43e0	0.037662387
133	0x3e194b71	0.14970185
134	0x3d083cba	0.03326104
135	0x3da6c76c	0.081435055
136	0x3daf084c	0.085465044
137	0x3d98ddaa	0.07464154
138	0x3e9fad8b	0.3118709
139	0x3d0a8ac0	0.03382373
140	0x3ea2779c	0.3173188
141	0xbd8edbcf	-0.06975519
142	0xbe3d4aa8	-0.1848551
143	0xbdf650bf	-0.1202712
144	0x3e02d0ae	0.12774917
145	0xbe0ece5c	-0.13945907
146	0xbdcdd4b4	-0.100503355
147	0xbe92a13c	-0.28638637
148	0x3e53f037	0.20697103
149	0x3f3f6a66	0.74771726
150	0xbeb7e388	-0.3591578
151	0x3c9a8088	0.018860117
152	0xbe5da8d1	-0.2164643
153	0x3db5fd76	0.088862345
154	0xbbd7d194	-0.006586263
155	0x3dab5c0c	0.08367166
156	0xbe72fb21	-0.2372861
157	0xbcc9f87c	-0.02465462
158	0xbe655b2b	-0.22398059
159	0x3eb5ab4e	0.35482258
160	0x3e7a3329	0.24433579
161	0xbd9d7dd3	-0.07690015
162	0xbe4b812b	-0.19873492
163	0xbd4f3290	-0.05058533
164	0x3c683a73	0.014174092
165	0xbe57d5c2	-0.21077636
166	0x3d189e9d	0.03726064
167	0x3e7a431d	0.24439664
168	0xbebc6cb5	-0.36801687
169	0xbead8ea7	-0.33897898
170	0xbd972dce	-0.073817834
171	0x3e773e92	0.24144962
172	0xbd86443b	-0.06555983
173	0xbdf56788	-0.11982638
174	0xbe345d6b	-0.17613761
175	0xbe2d0b08	-0.1689874
176	0xbe480f94	-0.19537193
177	0xbdd0816e	-0.10180937
178	0xbea14d96	-0.31504506
179	0xbee4c6d1	-0.44682935
180	0xbf3ac619	-0.72958523
181	0xbed4a9a4	-0.41535676
182	0xbdc1b112	-0.094576016
183	0x3d3f938c	0.04677157
184	0x3e351e40	0.1768732
185	0xbe7cb564	-0.2467857
186	0x3df772a8	0.12082416
187	0xbdc4137a	-0.09574027
188	0x3d280a28	0.04102531
189	0x3ec2c06f	0.3803744
190	0x3d75deb0	0.060026824
191	0xbe8a1165	-0.26966396
192	0x3e77856c	0.2417199
193	0x3ee4a828	0.44659543
194	0x3e8e335a	0.27773553
195	0xbe9b5685	-0.30339447
196	0xbe0907ea	-0.13381925
197	0xbcc973f6	-0.024591427
198	0x3d64278d	0.05570178
199	0xbc9629a2	-0.018330399
200	0x3c934750	0.01797834
201	0xbd33bcf0	-0.043881357
202	0xbe7974d3	-0.24360971
203	0xbb231280	-0.0024882853
204	0xbded335a	-0.1158206
205	0xbdb1b01c	-0.08676168
206	0x3ea02659	0.31279257
207	0x3e8c2816	0.27374333
208	0x3e913000	0.28356934
209	0x3f068990	0.52553654
210	0x3eda3d22	0.42624766
211	0xbe7aa310	-0.24476266
212	0xbe33ccdd	-0.17558618
213	0x3e0a5672	0.13509539
214	0x3cdf26d6	0.027240198
215	0xbc0e48c5	-0.008684342
216	0xbe756ae7	-0.23966561
217	0x3dbe1250	0.092808366
218	0xba2bd254	-0.00065544737
219	0xbe747dae	-0.23876068
220	0xbe86be19	-0.26316908
221	0xbe027848	-0.12741196
222	0x3ed642aa	0.41847736
223	0x3cc5d593	0.024149692
224	0xbe9f4ce4	-0.3111335
225	0x3d114ae2	0.035471804
226	0xbe583834	-0.2111519
227	0xbd9b61a4	-0.07586983
228	0x3ecb35fe	0.3968963
229	0xbdfffdca	-0.12499578
230	0xbd84d71c	-0.06486341
231	0xbe170577	-0.14748178
232	0xbe32b775	-0.17452796
233	0xbebf861a	-0.37407
234	0x3ecc44bc	0.3989619
235	0xbe5abaf3	-0.21360378
236	0x3e9bf976	0.3046376
237	0xbe1840d0	-0.14868474
238	0x3e7f56b8	0.24935424
239	0xbeb1b1e8	-0.34706044
240	0xbd96cb96	-0.0736305
241	0x3ddf964a	0.10917337
242	0xbeab904a	-0.3350852
243	0xbdb4a2e0	-0.088201284
244	0x3f07c2a5	0.5303138
245	0x3e93bd85	0.2885553
246	0xbe984813	-0.29742488
247	0x3c76c040	0.015060484
248	0x3ed78527	0.42093775
249	0xbdb93cb7	-0.090447836
250	0x3ea9e2ab	0.33180746
251	0xbe26b403	-0.16279607
252	0x3d125558	0.03572592
253	0xbe531e36	-0.20616993
254	0x3d7be7e0	0.06150043
255	0xbd25099a	-0.04029236

net.out.bias f4 [4]
0	0xbd41be30	-0.047300518
1	0x3d4c42ed	0.049868513
2	0xbd702a6f	-0.058634218
3	0x3d65f92c	0.056145832

net.fc1.weight f4 [64, 8]
0	0xbad7dfc3	-0.0016469884
1	0x3e433cc3	0.19066148
2	0xbe94799f	-0.2899904
3	0xbe85bb2f	-0.26119372
4	0xbe0c76fb	-0.13717262
5	0x3dc01e63	0.09380796
6	0xbbe58a40	-0.007005006
7	0x3e8f8741	0.28032878
8	0xbcf8d69e	-0.030375775
9	0x3dc1a5e2	0.09455468
10	0xbdd8c713	-0.105848454
11	0xbd906065	-0.07049636
12	0xbead72d4	-0.3387667
13	0xbe70cbb5	-0.23515208
14	0xbe153d9f	-0.14574288
15	0x3c569440	0.013096869
16	0x3e0e1a46	0.1387721
17	0x3e58351d	0.21114011
18	0xbe767703	-0.24068837
19	0xbe1ca162	-0.15295938
20	0x3e0485ca	0.12941661
21	0x3e96d409	0.29458645
22	0xbd9503e8	-0.07276136
23	0x3e87757b	0.26456818
24	0xbd65528e	-0.055986933
25	0x3d1d54cb	0.038410943
26	0x3ea46bb3	0.32113418
27	0xbea87032	-0.32898098
28	0xbe64f0ea	-0.22357526
29	0xbdb95bf5	-0.090507425
30	0xbe0d1f66	-0.13781509
31	0x3e9c669d	0.30547038
32	0xbe6aaa86	-0.22916612
33	0xbe26a886	-0.16275224
34	0xbe7cef53	-0.2470067
35	0xbea98920	-0.3311243
36	0xbe53562d	-0.20638342
37	0x3e9b9a97	0.3039138
38	0x3e218c5e	0.15776202
39	0x3e2f785e	0.1713576
40	0x3c985250	0.018593937
41	0xbe399c7b	-0.18126099
42	0x3d750170	0.059815824
43	0xbea9044d	-0.33011094
44	0xbe82cc68	-0.25546575
45	0xbe3aa44c	-0.18226737
46	0x3e646c86	0.22307023
47	0x3e54455e	0.20729586
48	0xbe21961a	-0.15779915
49	0xbc61654d	-0.013757062
50	0x3e66858d	0.22511883
51	0x3eb37201	0.35047916
52	0x3e10b5f0	0.14131904
53	0x3d47bb3a	0.048762538
54	0x3e72bdf2	0.23705271
55	0xbe552b52	-0.20817307
56	0x3d86ed70	0.06588256
57	0xbe8c5865	-0.2741119
58	0xbe7aec8a	-0.24504295
59	0xbe3b05f2	-0.18263987
60	0x3e23d00e	0.15997335
61	0x3e1198fe	0.14218518
62	0xbe56745b	-0.20942824
63	0x3ddabfb8	0.10681099
64	0x3e45b9a4	0.19309098
65	0xbd3ae0d3	-0.045624565
66	0x3c4cc979	0.012499207
67	0x3da9d1f2	0.08291997
68	0x3e619fd0	0.2203362
69	0x3eae5360	0.34047985
70	0xbe8b7f6e	-0.2724566
71	0xbe04ad1c	-0.12956661
72	0x3e0d42c3	0.13794999
73	0x3e9578b1	0.29193643
74	0x3e9d0329	0.30666474
75	0x3ea03c51	0.31296018
76	0x3d922662	0.07136227
77	0xbe9ce637	-0.3064439
78	0x3d053828	0.032524258
79	0xbe627e4b	-0.2211849
80	0xbea83092	-0.32849556
81	0x3ea158a7	0.3151295
82	0x3e8a26dd	0.26982775
83	0xbeb51576	-0.35367936
84	0x3d857aa4	0.065175325
85	0xbd780d59	-0.060559604
86	0xbd6e4f60	-0.058181167
87	0xbe25b9c7	-0.1618415
88	0x3e0b3966	0.13596115
89	0xbe566fd0	-0.2094109
90	0x3e04b862	0.12960961
91	0x3e3715fe	0.17879483
92	0x3e81962b	0.25309882
93	0x3e075ecc	0.13219756
94	0xbeb32945	-0.34992424
95	0xbe6ada76	-0.22934899
96	0x3e34c576	0.1765345
97	0x3d978ce4	0.0739992
98	0xbe8d35d6	-0.27580136
99	0xbe50780b	-0.20358293
100	0x3eaa4b37	0.3326051
101	0x3e73f2ba	0.23823062
102	0xbe1ddba3	-0.15415816
103	0xbdb63d40	-0.08898401
104	0xbeac704d	-0.3367943
105	0xbbd03c00	-0.006354809
106	0xbe885177	-0.26624653
107	0xbe8ba167	-0.27271578
108	0xbc9f95e0	-0.019480646
109	0x3d596ee8	0.053084284
110	0xbe14440b	-0.14479081
111	0x3e56d35e	0.20979068
112	0xbe5b4a6b	-0.21415107
113	0x3ea4c377	0.32180378
114	0x3e79210b	0.24329011
115	0xbe99299a	-0.29914552
116	0xbdb6426d	-0.088993885
117	0x3c74fe84	0.014953259
118	0x3d534990	0.051583827
119	0x3dabbb88	0.08385378
120	0x3e0e1300	0.13874435
121	0x3cad7d50	0.021177918
122	0xbe30a62a	-0.17250887
123	0x3e2b500e	0.16729757
124	0xbeada481	-0.3391457
125	0xbe56952e	-0.20955345
126	0xbdb54218	-0.08850497
127	0xbe305a97	-0.17222057
128	0xbdfd4e72	-0.12368478
129	0xbe945e0c	-0.28978002
130	0xbd9a05b0	-0.07520616
131	0x3d9ac6b4	0.07557431
132	0xbe6bdb16	-0.23032793
133	0xbc94a300	-0.01814413
134	0x3e819535	0.25309148
135	0xbd14dee0	-0.036345363
136	0x3c20fd60	0.009826034
137	0xbcf9dc80	-0.03050065
138	0x3d928a2c	0.071552604
139	0x3e6632ce	0.22480318
140	0x3eab7849	0.33490208
141	0x3e65ea2e	0.22452614
142	0x3eabdcb9	0.33566836
143	0xbcd17740	-0.025569558
144	0xbea32024	-0.3186046
145	0xbe2ca886	-0.16861162
146	0x3e757d71	0.23973633
147	0xbaa955a5	-0.0012919201
148	0xbe32ed0e	-0.17473242
149	0xbe8a348b	-0.26993212
150	0xbea96846	-0.33087367
151	0xbe98c824	-0.29840195
152	0xbd90d24f	-0.07071363
153	0x3e479173	0.19489078
154	0x3e44c1cb	0.19214551
155	0xbeaf17c2	-0.34197813
156	0x3e60cf29	0.21954025
157	0xbe8e294d	-0.27765885
158	0xbd9913d0	-0.07474482
159	0xbe12cbf9	-0.14335622
160	0xbd8b77e4	-0.06809977
161	0xbd8e2ad4	-0.069417626
162	0xbea2700c	-0.3172611
163	0xbe9c4c88	-0.3052714
164	0xbd629b40	-0.05532384
165	0x3b95d280	0.0045722127
166	0xbe24770f	-0.16061042
167	0x3e086132	0.13318327
168	0xbea2ed8f	-0.31821868
169	0xbcc376c0	-0.023860335
170	0x3e9f3121	0.3109217
171	0xbe13ac34	-0.14421159
172	0x3ea37605	0.3192598
173	0x3e031d1a	0.1280407
174	0xbea35ce6	-0.31906813
175	0x3e650f96	0.22369227
176	0xbd271be8	-0.040798098
177	0xbe219dd5	-0.15782864
178	0x3e90c0b1	0.28272012
179	0xbe9247e6	-0.2857048
180	0x3d1b64e8	0.03793803
181	0xbd979960	-0.07402301
182	0x3e8144a9	0.25247696
183	0x3dca1f4c	0.09869251
184	0x3e2efc4b	0.1708843
185	0x3e00e197	0.12586056
186	0xbdac1302	-0.08402063
187	0xbd963acd	-0.07335434
188	0xbe95afc9	-0.29235676
189	0x3e432501	0.19057085
190	0x3e8fb9b3	0.28071365
191	0x3e77b742	0.24191001
192	0xbe7f5fcc	-0.24938887
193	0x3c812cd0	0.015768439
194	0xbe7f36a2	-0.24923185
195	0xbe474beb	-0.19462554
196	0xbe52f640	-0.2060175
197	0x3df77328	0.12082511
198	0xbe57be5d	-0.21068712
199	0xbbfcc200	-0.0077135563
200	0x3c8208c4	0.01587332
201	0x3e6a6707	0.22890864
202	0xbe8852fc	-0.26625812
203	0xbe799167	-0.24371873
204	0xbe533ef5	-0.20629485
205	0x3e7c6105	0.24646385
206	0xbe0223e6	-0.12709007
207	0x3e98b011	0.29821828
208	0x3e02ea7a	0.12784758
209	0x3d375fc0	0.04476905
210	0xbb2c7b80	-0.002631873
211	0xbd8f2300	-0.069890976
212	0x3d35b1d8	0.04435906
213	0xbda556d8	-0.08073205
214	0xbb22ce80	-0.0024842322
215	0x3d38c640	0.04511094
216	0xbe8d9820	-0.27655125
217	0xbe3dc17f	-0.18530844
218	0x3e922bfb	0.2854918
219	0xbe92e7d8	-0.28692508
220	0xbccff910	-0.025387317
221	0x3eb31243	0.3497487
222	0x3e02c822	0.12771657
223	0x3c2401c0	0.010010183
224	0xbe9cdf87	-0.30639288
225	0x3e335892	0.17514256
226	0xbe80efc4	-0.25182927
227	0xbdcd8a28	-0.10036117
228	0xbdf2f094	-0.11862293
229	0xbd567418	-0.05235681
230	0x3b7d7200	0.0038672686
231	0x3e954e5d	0.2916135
232	0x3d38e1c3	0.04513718
233	0x3ea2a653	0.3176752
234	0x3e5e7ccf	0.21727298
235	0xbe65e8ef	-0.22452138
236	0x3e215a11	0.15757014
237	0xbe80794e	-0.25092548
238	0xbe1970eb	-0.14984481
239	0x3dd4f7b4	0.10398808
240	0x3ded098c	0.115740865
241	0x3e885159	0.26624563
242	0xbde70b44	-0.112814456
243	0x3acd40b0	0.0015659537
244	0x3e3b68f0	0.18301749
245	0xbeaf930a	-0.3429187
246	0x3e82df9b	0.25561222
247	0xbe95b05f	-0.29236123
248	0x3b9fac80	0.0048728585
249	0xbd7635e8	-0.060110003
250	0xbe3ead0d	-0.18620701
251	0x3d3f6770	0.046729505
252	0x3e95b033	0.29235992
253	0xbdd3a974	-0.10335055
254	0xbe56f0b2	-0.20990255
255	0xbe05e55d	-0.13075776

net.fc1.bias f4 [64]
0	0xbdc6d9c2	-0.09709503
1	0xbe05f145	-0.13080318
2	0x3db43cde	0.08800672
3	0x3e016fd3	0.12640314
4	0xbe30e1bf	-0.17273615
5	0x3d0003b0	0.031253517
6	0x3e50ca55	0.20389684
7	0xbd101630	-0.03517741
8	0x3dda5033	0.10659828
9	0xbdb0af9e	-0.08627246
10	0x3dffd639	0.124920316
11	0xbe83211e	-0.25611204
12	0xbe54e3a0	-0.20789957
13	0xbe37c474	-0.17946035
14	0x3ea6dee9	0.32591942
15	0xbdc2d674	-0.0951356
16	0xba7d0e00	-0.000965327
17	0xbe2f67f7	-0.17129503
18	0x3eb432a3	0.35194883
19	0x3eb14ee5	0.34630504
20	0xbe8885ba	-0.26664525
21	0xbe92bf36	-0.28661507
22	0xbe89361d	-0.26799098
23	0xba38d528	-0.0007050806
24	0xbdb891f4	-0.09012213
25	0xbe6bf264	-0.23041683
26	0xbe01da6a	-0.12680975
27	0x3d88ccf0	0.06679714
28	0xbe3d296f	-0.18472837
29	0x3da27daa	0.07934125
30	0xbda3fe93	-0.080075406
31	0xbe2f6e40	-0.17131901
32	0x3d4b0d26	0.049573086
33	0x3e955b4d	0.2917122
34	0xbe74c450	-0.23903012
35	0x3c867d00	0.016417027
36	0xbe058218	-0.13037908
37	0x3eb11f99	0.3459442
38	0xbeabbe97	-0.33543846
39	0xbead8945	-0.3389379
40	0x3eb1dc9b	0.3473862
41	0xbe650ee8	-0.22368968
42	0x3d8cdeda	0.06878443
43	0xbd0114a3	-0.03151382
44	0xbd9a947a	-0.07547851
45	0xbda1b898	-0.078965366
46	0x3e6507b1	0.22366215
47	0x3c823e2a	0.015898783
48	0xbeb0c14b	-0.3452247
49	0xbe55bbb3	-0.20872383
50	0xbdf6d694	-0.12052646
51	0x3e373533	0.17891388
52	0xbe6a4994	-0.2287963
53	0x3eaaafcb	0.33337244
54	0xbda145f4	-0.078746706
55	0xbd820448	-0.06348473
56	0x3e8dd6d3	0.2770296
57	0x3e36fcc7	0.17869864
58	0x3e9903a1	0.2988558
59	0x3e50652d	0.20351095
60	0xbddba6d4	-0.10725179
61	0xbe7033e2	-0.23457292
62	0xbcd77e80	-0.026305437
63	0x3e965495	0.29361406

net.fc2.weight f4 [64, 64]
0	0xbd27bdc9	-0.040952478
1	0xbdeb5bd5	-0.11492125
2	0x3d55fab7	0.052241053
3	0x3dfb41b6	0.12268393
4	0xbd11c200	-0.035585403
5	0xbdd3f95a	-0.103502944
6	0xbde628c6	-0.11238246
7	0x3d004e90	0.031324923
8	0xbc0ab0af	-0.008464976
9	0xbd7e751d	-0.062123407
10	0x3cd72ccf	0.026266484
11	0x3d426fc0	0.047469854
12	0x3dcb9a06	0.09941487
13	0x3dc6c0fc	0.097047776
14	0xbc911589	-0.017710464
15	0xbde1bb7e	-0.110220894
16	0xbde753d8	-0.11295289
17	0x3def0648	0.1167112
18	0x3d666da3	0.0562569
19	0x3d6347d3	0.05548842
20	0xbddd7f20	-0.10815263
21	0x3ded0f5e	0.11575197
22	0x3df28514	0.11841789
23	0x3de92e24	0.11385754
24	0xbdd7f530	-0.10544813
25	0xbd4548f6	-0.048165284
26	0xbdb0114a	-0.085970476
27	0x3df26c56	0.1183707
28	0xbd5bff04	-0.05371
29	0xbd65a8f1	-0.05606932
30	0x3d882b72	0.066489115
31	0xbd6cd8e8	-0.057824045
32	0xbd781349	-0.060565267
33	0xbc22c1f4	-0.009933937
34	0xbc44da50	-0.01201494
35	0xbdc76b22	-0.09737231
36	0x3dd56b46	0.104208514
37	0xbd5dc222	-0.054140218
38	0x3d359d30	0.04433936
39	0x3ddeaa24	0.108722955
40	0x3d83272c	0.06403956
41	0x3c90fa50	0.017697483
42	0x3ddbde0e	0.10735713
43	0x3c91d82f	0.01780328
44	0xbd68c8c1	-0.05683208
45	0x3df22d06	0.11824994
46	0x3cfa8d86	0.030585062
47	0xbdf7b9ee	-0.1209601
48	0xbd0daa85	-0.03458645
49	0xbdae60fe	-0.085145935
50	0x3de072e2	0.10959412
51	0xbca0ead9	-0.019643234
52	0xbde959b2	-0.11394061
53	0xbc00be80	-0.007857919
54	0x3da0c574	0.07850161
55	0x3d050490	0.032475054
56	0x3d21e58c	0.039525554
57	0x3c4e969d	0.012609151
58	0x3d42faab	0.047602337
59	0xbcf14ec1	-0.029456498
60	0xbd4bac78	-0.049725026
61	0xbdef490e	-0.11683856
62	0xbdc0dab0	-0.09416711
63	0x3d61ff83	0.055175316
64	0xbd9794be	-0.07401417
65	0x3c92e8e0	0.01793331
66	0x3d236d10	0.039898932
67	0x3c1101a0	0.008850485
68	0xbda5fa40	-0.08104372
69	0x3df4d1f0	0.11954105
70	0xbd94dd26	-0.07268743
71	0x3dd28f66	0.10281257
72	0xbdcba66e	-0.09943853
73	0xbcf65258	-0.030068561
74	0x3d8b418a	0.0679961
75	0xbd51317c	-0.051072583
76	0x3dd70d0e	0.10500537
77	0xbdb02b06	-0.08601956
78	0xbdd6fb44	-0.10497144
79	0xbd66dee0	-0.056364894
80	0x3ca587b0	0.020206302
81	0x3debb6a8	0.11509448
82	0xbd746de4	-0.059675112
83	0x3d371b0c	0.04470353
84	0xbd005cac	-0.03133838
85	0xbcde1128	-0.02710779
86	0x3dbc3cd8	0.091912925
87	0xbdc6657a	-0.09687324
88	0x3c598660	0.013276666
89	0x3df0bea8	0.11755115
90	0xbc8cb5c8	-0.017176524
91	0x3dc6c4a6	0.097054765
92	0xbd1dac84	-0.0384946
93	0x3dce1200	0.10062027
94	0xbdf7a2f6	-0.12091629
95	0xbc939528	-0.01801546
96	0xbcb3dca8	-0.021955803
97	0x3d25ee78	0.040510625
98	0x3d48df24	0.04904093
99	0x3dc48fa6	0.09597711
100	0xbc988fc8	-0.018623248
101	0xbba26d60	-0.004956886
102	0x3daf4fca	0.085601404
103	0xbd0a8890	-0.033821642
104	0x3de06b10	0.109579206
105	0xbdaa72aa	-0.08322652
106	0xbc5d9d20	-0.013526231
107	0xbbdc0000	-0.006713867
108	0x3d6475a0	0.05577624
109	0x3daf0566	0.085459515
110	0xbca24ed0	-0.019812971
111	0xbdd4174e	-0.103560075
112	0x3d7db128	0.061936527
113	0x3d1927cc	0.03739147
114	0x3d4dab88	0.050212413
115	0xbd9deb0a	-0.07710846
116	0x3da4c2ae	0.08044945
117	0x3df278c0	0.118394375
118	0x3c31b530	0.010846421
119	0xbdef1dcc	-0.11675605
120	0x3db3b59c	0.087748736
121	0xbdbdcfc0	-0.09268141
122	0x3ceb6398	0.028734013
123	0x3c94ce30	0.018164724
124	0xbd6fa27c	-0.058504567
125	0x3d3246b0	0.043524444
126	0xbde4f98a	-0.11180408
127	0x3ce939c8	0.028469935
128	0xbda03e53	-0.078243874
129	0xbc4d12ec	-0.012516718
130	0x3c8be86d	0.017078603
131	0x3ddc2551	0.10749305
132	0xbd74491c	-0.059640035
133	0x3da400ba	0.08007951
134	0xbc73c808	-0.014879234
135	0xbd7329bc	-0.059365973
136	0xbddeecba	-0.10884996
137	0xbde8d633	-0.1136898
138	0x3dfc0f72	0.123076335
139	0xbcff6298	-0.031174943
140	0x3bcc9720	0.0062436014
141	0x3d0acf3c	0.03388904
142	0x3db00f38	0.08596653
143	0x3dda7d48	0.10668427
144	0x3dcf9ed2	0.101377144
145	0xbdbdaa84	-0.09261039
146	0xbc9bdebb	-0.019027105
147	0xbd956fd4	-0.0729672
148	0xbd92441c	-0.07141897
149	0x3cf2e668	0.029650882
150	0x3df04b3c	0.117331
151	0xbdcb08dd	-0.099138
152	0x3d9aeeae	0.07565056
153	0xbd82ae6a	-0.06380923
154	0xbcc772e8	-0.024346784
155	0x3dcb3492	0.09922136
156	0xbce79930	-0.028271288
157	0x3c4addbc	0.012381967
158	0xbdb0e783	-0.08637907
159	0x3dd9eaec	0.10640511
160	0xbc785c57	-0.015158734
161	0xbdb93075	-0.090424456
162	0x3d15eb3c	0.03660129
163	0xbdb6053c	-0.08887717
164	0xbdcb234c	-0.09918842
165	0x3c0d2574	0.008614887
166	0x3dcaf7cc	0.09910545
167	0xbd10e348	-0.035373002
168	0x3d7513d2	0.059833355
169	0x3ddbfc7a	0.107415155
170	0x3dabd7c2	0.08390762
171	0xbd843d59	-0.06457014
172	0xbc501e1e	-0.012702493
173	0xbd211e60	-0.03933561
174	0xbdcbceb8	-0.09951538
175	0x3a89d75e	0.0010516455
176	0x3dc2abdf	0.09505438
177	0x3dd7af1a	0.10531445
178	0x3c3f1470	0.0116625875
179	0x3cf0c415	0.029390374
180	0xbd5da7e8	-0.054115206
181	0x3dc13d5a	0.0943553
182	0xbd550c2c	-0.05201356
183	0xbdb1d4c4	-0.0868316
184	0x3c9db078	0.019249186
185	0x3d9b7d9b	0.07592317
186	0xbde4c26a	-0.11169894
187	0x3de976b3	0.11399593
188	0x3d382eac	0.044966385
189	0xbdb35b5c	-0.0875766
190	0xbcdc93c8	-0.026925936
191	0x3de02600	0.10944748
192	0xbdc25d47	-0.094904475
193	0xbd15a55c	-0.036534652
194	0x3d2c0598	0.041997522
195	0xbdde3ad4	-0.10851064
196	0x3d8c56b8	0.06852478
197	0x3d85429c	0.06506845
198	0x3da0d212	0.07852568
199	0xbda3364a	-0.07969339
200	0x3e008313	0.12550001
201	0xbd95b2ef	-0.073095195
202	0x3e00cfc3	0.12579255
203	0xbdf5ae46	-0.11996131
204	0xbde4169c	-0.11137125
205	0x3d9d3bf8	0.07677454
206	0x3c666d29	0.014064112
207	0x3bec4ba0	0.0072111636
208	0xbd8dc31c	-0.0692198
209	0xbd56c57c	-0.05243443
210	0xbd119b41	-0.035548452
211	0xbdf755f7	-0.12076943
212	0x3bd4dd20	0.0064960867
213	0x3cb51a80	0.022107363
214	0xb8ddf000	-0.00010582805
215	0x3d296fab	0.04136626
216	0x3df2e7e6	0.11860637
217	0x3d040f03	0.03224088
218	0xbd3b6dd8	-0.045759052
219	0xbd52b640	-0.05144334
220	0xbda3ca4c	-0.079975694
221	0xbdaf6a81	-0.08565236
222	0xbc9cb91f	-0.019131241
223	0xbcb51c40	-0.022108197
224	0x3d67dd92	0.05660779
225	0xbd56c075	-0.052429635
226	0x3dcc158a	0.09965046
227	0xbdb3a150	-0.08771002
228	0x39ba4400	0.00035527349
229	0x3de41383	0.11136534
230	0x3dfe9006	0.12429814
231	0xbd944a88	-0.07240778
232	0x3cbe9891	0.023266109
233	0x3c71ea50	0.014765337
234	0xbd6bf4c2	-0.057606466
235	0xbd2ccc22	-0.042186864
236	0x3d0ec5ed	0.034856725
237	0xbdb20374	-0.08692065
238	0x3cb125ba	0.021624435
239	0x3d61a6aa	0.055090584
240	0xbd45ab00	-0.04825878
241	0x3dd4a4e6	0.103830144
242	0xbc06c7a0	-0.008226305
243	0x3d6c6599	0.05771408
244	0x3dfd84b8	0.1237883
245	0xbd1c8090	-0.038208544
246	0x3d8b1ccc	0.06792602
247	0xbd12726c	-0.035753652
248	0xbc959428	-0.018259123
249	0xbca558b7	-0.020183904
250	0x396a45d8	0.00022341998
251	0xbd3d5251	-0.04622108
252	0x3cf00320	0.029298365
253	0x3b9a56c0	0.0047100484
254	0x3da2469a	0.079236224
255	0xbcc7124b	-0.024300715

net.fc2.bias f4 [64]
0	0x3cd65db7	0.026167734
1	0xbdf8aa76	-0.12141888
2	0xbdb0239a	-0.086005405
3	0x3dca0c5d	0.09865639
4	0x3d636c35	0.055523116
5	0xbb8e48fa	-0.0043421956
6	0x3b815a60	0.003947541
7	0x3c8d5910	0.017254382
8	0x3cee0018	0.02905278
9	0xbdaec7f0	-0.08534229
10	0xbd0b9098	-0.034073442
11	0xbdeaf35c	-0.11472198
12	0xbdc94378	-0.09827322
13	0xbcc0abc8	-0.023519412
14	0xbc7e0714	-0.015504617
15	0x3dc62e70	0.09676826
16	0x3cb06118	0.021530673
17	0xbca60988	-0.020268217
18	0xbb62f480	-0.0034630597
19	0x3d9105a4	0.07081154
20	0xbd1f3187	-0.038865592
21	0xbcbf6e30	-0.023367971
22	0xbcc53ac1	-0.024075868
23	0xbdce6e74	-0.10079661
24	0xbc86ecc9	-0.01647033
25	0xbdeca836	-0.11555521
26	0xbd899ad0	-0.06718981
27	0xbda2f292	-0.07956423
28	0x3dbeb376	0.09311573
29	0xbdebd2ba	-0.11514802
30	0x3df6aa06	0.12044148
31	0x3d3be089	0.04586843
32	0xbdad00ca	-0.08447416
33	0x3dd417e4	0.10356119
34	0xbcd974c9	-0.026544945
35	0xbdd8d404	-0.10587314
36	0xbc9665a7	-0.018359018
37	0x3d7d091c	0.061776266
38	0xbdf8e7ec	-0.121536106
39	0xbc0916e3	-0.008367273
40	0x3d546b8f	0.05186039
41	0xbd437181	-0.047715668
42	0x3c3a8700	0.011384726
43	0xbd449189	-0.047990356
44	0xbdabbff6	-0.08386223
45	0x3dc87be8	0.09789258
46	0xbdb5c5b0	-0.088755965
47	0xbac01500	-0.0014654696
48	0x3d2e9f63	0.04263247
49	0xbd911cf4	-0.070856005
50	0x3d7b4f97	0.0613552
51	0xbdd28caa	-0.10280736
52	0x3df68a82	0.12038137
53	0x3d640614	0.05566986
54	0xbc88c799	-0.016696738
55	0xbdd4f36c	-0.103979915
56	0x3b3b1889	0.002854856
57	0x3d359c74	0.04433866
58	0xbd8d1582	-0.06888868
59	0xbc718893	-0.0147420345
60	0xbdff1fa2	-0.12457205
61	0xbdffec88	-0.12496287
62	0xbc5e6c10	-0.013575569
63	0x3dd84140	0.105593204

net.out.weight f4 [4, 64]
0	0xbbe18c5b	-0.0068831868
1	0x3d2084a4	0.039188996
2	0xbd50c01e	-0.050964467
3	0xbd2315fc	-0.039815888
4	0xbc717f3e	-0.01473981
5	0xbd8376d2	-0.064191476
6	0x3d9ca668	0.07648927
7	0x3d9fa432	0.0779499
8	0xbdc703b8	-0.09717506
9	0x3d1d0a4c	0.038339898
10	0xbd538280	-0.051638126
11	0xbd933616	-0.071880504
12	0xbc79da50	-0.015249804
13	0xbd1ecd98	-0.03877029
14	0xbd93cfd8	-0.072173774
15	0x3c8eb899	0.017422007
16	0x3d921e38	0.0713467
17	0xbc9e0298	-0.019288346
18	0xbc0f4290	-0.008743897
19	0x3c09bad7	0.0084063625
20	0xbd60247f	-0.054722305
21	0x3d878782	0.06617643
22	0x3dea2860	0.11433482
23	0xbc3b2de0	-0.011424512
24	0x3bf5ab86	0.007497254
25	0x3dce44ba	0.10071702
26	0x3dd1adda	0.10238238
27	0xbdbe703c	-0.09298751
28	0xbd6d1bc8	-0.057887822
29	0xbdfb1e2c	-0.12261614
30	0x3d9ccc3c	0.07656142
31	0x3dc5c2c8	0.09656292
32	0xbd3a5928	-0.045495182
33	0x3d243c6c	0.040096685
34	0x3cefdb11	0.029279264
35	0xbddc4068	-0.10754472
36	0x3d485ce1	0.0489167
37	0x3d7b3a90	0.061335146
38	0x3b342980	0.0027490556
39	0x3c41a373	0.0118187545
40	0x3ce5c262	0.02804679
41	0x3db66060	0.08905101
42	0x3de231ae	0.11044632
43	0x3c8afc01	0.016965868
44	0x3d5a3e50	0.053282082
45	0xbd05f3cc	-0.032703206
46	0x3d98a0da	0.07452555
47	0xbd496560	-0.049168944
48	0xbdd510e6	-0.10403614
49	0x3d6c1f11	0.057646815
50	0x3d39cc45	0.045360822
51	0x3cd932c9	0.026513474
52	0x3d5def95	0.05418356
53	0x3c73b480	0.0148745775
54	0x3d32597a	0.043542363
55	0x3d50a19c	0.050935373
56	0xbd8c2571	-0.06843079
57	0xbbdb76e0	-0.0066975206
58	0x3c922062	0.017837707
59	0xbca3a89f	-0.019977866
60	0xbdd73d9e	-0.105097994
61	0x3c424590	0.011857405
62	0x3d9c73ae	0.07639252
63	0xbd8af4d8	-0.067849815
64	0x3dfd641a	0.123726085
65	0x3ce987c8	0.028507128
66	0x3d59c1cc	0.053163335
67	0xbd45b4d8	-0.04826817
68	0xbdcf5d02	-0.10125162
69	0xbd3a7339	-0.04552004
70	0x3b7a47c0	0.003818974
71	0xbd694e10	-0.05695921
72	0x3de3fc2a	0.11132081
73	0xbda3d93e	-0.0800042
74	0xbdac6c26	-0.08419065
75	0xbd359bfc	-0.04433821
76	0x3de5abc0	0.11214399
77	0xbd6a1d54	-0.057156876
78	0x3decd56e	0.11564146
79	0x3d7a25ab	0.06107108
80	0xbc9b96f0	-0.018992871
81	0x3d8467bc	0.06465098
82	0x3d7368b8	0.05942604
83	0xbd804103	-0.062624
84	0xbcca9faa	-0.024734337
85	0x3df7f7c8	0.121078074
86	0x3d94d16c	0.072665066
87	0xbd7a1240	-0.06105256
88	0xbd05933d	-0.03261112
89	0x3d8f7c68	0.070061505
90	0x3d81f65e	0.06345819
91	0x3c225740	0.009908497
92	0xbda4b8b2	-0.0804304
93	0xbdbcd120	-0.09219575
94	0xbcd82280	-0.026383638
95	0x3d40576f	0.046958383
96	0xbc5a5670	-0.013326272
97	0xbdd60980	-0.10451031
98	0xbcf2c4fd	-0.029634947
99	0x3dff87cc	0.12477073
100	0xbdd18a7a	-0.102314904
101	0xbdc6ae2e	-0.09701191
102	0x3da0edde	0.078578696
103	0x3e006289	0.12537588
104	0xbdf436eb	-0.11924537
105	0xbde57cfe	-0.11205481
106	0xbd201858	-0.039085716
107	0x3e00a4fc	0.12562937
108	0xbd914b62	-0.07094456
109	0x3c2f1a60	0.010687441
110	0x3dd0facc	0.10204086
111	0xbd3540a8	-0.044251114
112	0xbd18eaad	-0.03733318
113	0xbda9c9a9	-0.08290417
114	0x3bbe093a	0.0057994397
115	0x3df0fe2e	0.11767231
116	0x3d55759a	0.052114107
117	0x3db3f09a	0.087861255
118	0xbbee98e7	-0.007281411
119	0xbca2a690	-0.019854814
120	0xbcaebff9	-0.021331774
121	0x3d920240	0.071293354
122	0xbc7c2a73	-0.01539098
123	0xbdd8a048	-0.10577446
124	0xbd33c9b4	-0.04389353
125	0x3d485fb0	0.04891938
126	0x3df997d8	0.12187165
127	0xbcb20119	-0.021729039
128	0xbde0f01e	-0.10983299
129	0xbdbc7f54	-0.092039734
130	0xbdcb7871	-0.09935082
131	0x3d4e6394	0.050387934
132	0x3dbaa82e	0.09114109
133	0x3d1351f5	0.035966832
134	0x3d3088f4	0.04309936
135	0x3da6c76c	0.081435055
136	0x3daf084c	0.085465044
137	0x3d98ddaa	0.07464154
138	0x3d8f27b8	0.069899976
139	0x3d0a8ac0	0.03382373
140	0x3d842344	0.06452039
141	0xbdafa886	-0.08577065
142	0xbda5b27e	-0.08090685
143	0x3d059a45	0.032617826
144	0x3c9f5b68	0.019452766
145	0xbde10e24	-0.10989025
146	0xbdba7ede	-0.09106229
147	0xbdcdd7e2	-0.10050942
148	0x3dc945fa	0.098278
149	0x3da75f56	0.08172481
150	0xbd88cb30	-0.0667938
151	0x3c9a8088	0.018860117
152	0xbcf3b82f	-0.029750912
153	0x3dde8c2a	0.10866578
154	0xbde7de3c	-0.11321685
155	0xbdbac326	-0.09119253
156	0xbdd522fe	-0.10407065
157	0x3d94fc8a	0.072747305
158	0xbd7ff144	-0.06248595
159	0x3d966d9a	0.073451236
160	0x3d2d1298	0.04225406
161	0xbd7a4304	-0.061099067
162	0xbd0e0617	-0.034673776
163	0xbd4f3290	-0.05058533
164	0x3d5dc905	0.054146785
165	0xbd4d5418	-0.050129026
166	0x3d2dc1c8	0.042421132
167	0x3c01ecb2	0.007929968
168	0xbdce7dc2	-0.1008258
169	0xbda2f900	-0.07957649
170	0xbdb180f2	-0.086671725
171	0x3d84183c	0.06449935
172	0x3cdde1b0	0.027085155
173	0xbb4dfac0	-0.0031429976
174	0xbd986ed6	-0.07443015
175	0xbdfda58e	-0.12385093
176	0xbd39492b	-0.045235794
177	0xbdc5f9c6	-0.09666781
178	0xbe005749	-0.12533297
179	0xbdf635ec	-0.120220035
180	0xbda94409	-0.0826493
181	0xbdf8de36	-0.121517584
182	0x3d1b81f1	0.03796572
183	0x3d3f938c	0.04677157
184	0x3d4a4655	0.04938348
185	0xbdfed8c0	-0.124436855
186	0x3d9c4084	0.07629493
187	0x3cbf7361	0.023370447
188	0x3d82e712	0.063917294
189	0xbcfbace8	-0.030722097
190	0x3d75deb0	0.060026824
191	0xbdf4d79e	-0.11955188
192	0x3d2a4b81	0.041575912
193	0x3dcaffac	0.09912047
194	0x3d532191	0.051545683
195	0xbdf35b3f	-0.11882638
196	0xbd13d38f	-0.03609043
197	0xbc875b3f	-0.016523002
198	0x3d8621d6	0.065494224
199	0xbd41bdec	-0.047300264
200	0x3c934750	0.01797834
201	0xbd33bcf0	-0.043881357
202	0xbca2abc8	-0.019857302
203	0xbb231280	-0.0024882853
204	0xbd92ffda	-0.07177706
205	0xbdb1b01c	-0.08676168
206	0x3dd35666	0.103192136
207	0x3dd50b02	0.1040249
208	0xbb7802c0	-0.0037843436
209	0x3ddd95ee	0.108196124
210	0x3dc5451a	0.09632321
211	0xbda34c34	-0.07973519
212	0xbd4f8b37	-0.050669875
213	0xbdafd534	-0.08585587
214	0x3d217045	0.03941371
215	0x3b4f2d40	0.0031612664
216	0xbc949ecf	-0.018142132
217	0x3dbe1250	0.092808366
218	0xbd48202c	-0.048858806
219	0xbd8c1b42	-0.068411365
220	0xbdb5fbfa	-0.08885951
221	0xbd823c12	-0.06359114
222	0x3df6bd7a	0.120478585
223	0xbd7d068b	-0.061773818
224	0xbd0ce0e4	-0.03439416
225	0x3d66c408	0.056339294
226	0xbdc6aa18	-0.097004116
227	0xbd9b61a4	-0.07586983
228	0x3dba5ec0	0.091001034
229	0xbd445fc0	-0.047942877
230	0xbd84d71c	-0.06486341
231	0xbc8cace7	-0.01717229
232	0xbc9a1a9f	-0.018811522
233	0x3cb2f299	0.021844195
234	0x3d3bb5c8	0.045827657
235	0xbdc76f92	-0.09738077
236	0x3de8a49c	0.11359522
237	0xbdf36490	-0.11884415
238	0x3d2d6818	0.0423356
239	0xbd1076cc	-0.035269544
240	0xbd5c4fb3	-0.053786945
241	0x3ded6b6e	0.11592756
242	0xbdf8be44	-0.12145665
243	0x3bf6f8e5	0.0075369948
244	0x3da1fe2c	0.079098076
245	0x3de4dccc	0.11174926
246	0xbdda796c	-0.10667691
247	0x3c76c040	0.015060484
248	0x3dfb3bb6	0.12267248
249	0xbdfac26a	-0.12244113
250	0x3cf1ec09	0.029531496
251	0xbda2733e	-0.07932137
252	0x3ca63b98	0.020292088
253	0xbde792d8	-0.11307305
254	0x3d7be7e0	0.06150043
255	0xbceb5af7	-0.028729899

net.out.bias f4 [4]
0	0x3d96f2d6	0.07370536
1	0xba669b24	-0.00087969215
2	0xbc9a270f	-0.018817453
3	0xbd0066a7	-0.031347897
