rl_exercises/week_7/rnd_dqn_snapshot_100.pth (torch, 367214 bytes, 36 tensors)

net.fc1.weight f4 [64, 8]
000000 15 34 fc 3c fe 99 74 3e d5 65 7e be 5b 0b 94 be
       0.030786553 0.23886868 -0.24843533 -0.28914914
000010 7c 89 35 be d8 a5 dc 3c 40 8a e5 bb 41 87 8f 3e
       -0.17728227 0.02693455 -0.007005006 0.28032878
000020 26 85 a8 3c e2 21 1d 3e 5c 71 50 bd da a4 f6 bd
       0.020571303 0.15344957 -0.050889358 -0.12043162
000030 44 8a c9 be 86 4a 9b be 9f 3d 15 be 40 94 56 3c
       -0.393633 -0.30330294 -0.14574288 0.013096869
000040 3a 5f 38 3e 29 a3 86 3e 6f 8d 45 be ab 53 3d be
       0.18005076 0.26296356 -0.19292234 -0.18488948
000050 21 35 b1 3d 44 31 73 3e e8 03 95 bd 7b 75 87 3e
       0.08652712 0.23749262 -0.07276136 0.26456818
000060 e4 5b 2b b9 51 62 c9 3d 25 15 c2 3e 38 eb c4 be
       -0.00016342063 0.098332055 0.37906757 -0.38460708
000070 8d c3 90 be 2c e4 22 be 66 1f 0d be 9d 66 9c 3e
       -0.28274193 -0.15907353 -0.13781509 0.30547038
000080 86 aa 6a be 86 a8 26 be 53 ef 7c be 20 89 a9 be
       -0.22916612 -0.16275224 -0.2470067 -0.3311243
000090 2d 56 53 be 97 9a 9b 3e 5e 8c 21 3e 5e 78 2f 3e
       -0.20638342 0.3039138 0.15776202 0.1713576
0000a0 02 17 82 3d ac f4 f7 bd a6 8f e6 3d c1 c1 be be
       0.06352045 -0.12107214 0.112578675 -0.37257197
0000b0 e4 dd 9b be e1 c9 7d be 86 6c 64 3e 5e 45 54 3e
       -0.30442727 -0.24784042 0.22307023 0.20729586
0000c0 e3 13 09 be cd 4f b5 3b 5e a4 7a 3e 7d d8 9e 3e
       -0.13386492 0.0055331946 0.24476764 0.31024542
0000d0 d4 b0 e1 3d 12 09 f5 3a f2 bd 72 3e 52 2b 55 be
       0.110200554 0.001869472 0.23705271 -0.20817307
0000e0 70 ed 86 3d 65 58 8c be 8a ec 7a be f2 05 3b be
       0.06588256 -0.2741119 -0.24504295 -0.18263987
0000f0 0e d0 23 3e fe 98 11 3e 5b 74 56 be b8 bf da 3d
       0.15997335 0.14218518 -0.20942824 0.10681099
000100 9d 2a 6e 3e 4e 22 94 3a 6f 4d 75 3d 6e 3c b7 3d
       0.23258443 0.0011301727 0.0598883 0.08947073
000110 1e c9 38 3e 3c 5d 97 3e 6e 7f 8b be 1c ad 04 be
       0.1804547 0.2956332 -0.2724566 -0.12956661
000120 ea 95 c3 3d 02 f1 83 3e d3 11 8a 3e fa a8 b9 3e
       0.09550078 0.25769812 0.26966724 0.3626173
000130 cc f9 e5 3d 0e b7 8d be 28 38 05 3d 4b 7e 62 be
       0.112292856 -0.27678722 0.032524258 -0.2211849
000140 1e ec 8c be ca 3c c0 3e f8 74 a7 3e 9b 06 cf be
       -0.27523893 0.37546378 0.32706428 -0.40434727
000150 67 09 12 3c de 25 04 be 60 4f 6e bd c7 b9 25 be
       0.0089133745 -0.1290507 -0.058181167 -0.1618415
000160 66 39 0b 3e d0 6f 56 be 62 b8 04 3e fe 15 37 3e
       0.13596115 -0.2094109 0.12960961 0.17879483
000170 2b 96 81 3e cc 5e 07 3e 45 29 b3 be 76 da 6a be
       0.25309882 0.13219756 -0.34992424 -0.22934899
000180 76 c5 34 3e e4 8c 97 3d d6 35 8d be 0b 78 50 be
       0.1765345 0.0739992 -0.27580136 -0.20358293
000190 37 4b aa 3e ba f2 73 3e a3 db 1d be 40 3d b6 bd
       0.3326051 0.23823062 -0.15415816 -0.08898401
0001a0 4d 70 ac be 00 3c d0 bb 77 51 88 be 67 a1 8b be
       -0.3367943 -0.006354809 -0.26624653 -0.27271578
0001b0 e0 95 9f bc e8 6e 59 3d 0b 44 14 be 5e d3 56 3e
       -0.019480646 0.053084284 -0.14479081 0.20979068
0001c0 07 c4 20 be ea 64 c4 3e 45 3e 9b 3e 36 58 b5 be
       -0.15699778 0.3835824 0.30320945 -0.35418862
0001d0 64 a2 18 be 89 03 62 bd 90 49 53 3d 88 bb ab 3d
       -0.14905697 -0.055179153 0.051583827 0.08385378
0001e0 00 13 0e 3e 50 7d ad 3c 2a a6 30 be 0e 50 2b 3e
       0.13874435 0.021177918 -0.17250887 0.16729757
0001f0 81 a4 ad be 2e 95 56 be 18 42 b5 bd 97 5a 30 be
       -0.3391457 -0.20955345 -0.08850497 -0.17222057
000200 72 4e fd bd 0c 5e 94 be b0 05 9a bd b4 c6 9a 3d
       -0.12368478 -0.28978002 -0.07520616 0.07557431
000210 16 db 6b be 00 a3 94 bc 35 95 81 3e e0 de 14 bd
       -0.23032793 -0.01814413 0.25309148 -0.036345363
000220 60 fd 20 3c 80 dc f9 bc 2c 8a 92 3d ce 32 66 3e
       0.009826034 -0.03050065 0.071552604 0.22480318
000230 49 78 ab 3e 2e ea 65 3e b9 dc ab 3e 40 77 d1 bc
       0.33490208 0.22452614 0.33566836 -0.025569558
000240 28 38 a8 be 41 42 27 be 6d 9a 75 3e c0 b2 a0 3c
       -0.32855344 -0.16333868 0.2398469 0.019616485
000250 1b b6 2c be b7 f2 92 be 46 68 a9 be 24 c8 98 be
       -0.16866343 -0.28700802 -0.33087367 -0.29840195
000260 18 55 a4 bc f4 a1 81 3e 1e 30 7d 3e 13 f8 c6 be
       -0.020060107 0.25318873 0.24725387 -0.3886114
000270 33 77 29 3e b5 ae b0 be d0 13 99 bd f9 cb 12 be
       0.16549377 -0.3450829 -0.07474482 -0.14335622
000280 e4 77 8b bd d4 2a 8e bd 0c 70 a2 be 88 4c 9c be
       -0.06809977 -0.069417626 -0.3172611 -0.3052714
000290 40 9b 62 bd 80 d2 95 3b 0f 77 24 be 32 61 08 3e
       -0.05532384 0.0045722127 -0.16061042 0.13318327
0002a0 8f ed a2 be c0 76 c3 bc 21 31 9f 3e 34 ac 13 be
       -0.31821868 -0.023860335 0.3109217 -0.14421159
0002b0 05 76 a3 3e 1a 1d 03 3e e6 5c a3 be 96 0f 65 3e
       0.3192598 0.1280407 -0.31906813 0.22369227
0002c0 dd 8a 6a bd de 05 32 be a7 4a 88 3e 63 fa 89 be
       -0.057261337 -0.1738505 0.26619455 -0.26948842
0002d0 9e d0 5d 3d 64 86 80 bd a9 44 81 3e 4c 1f ca 3d
       0.05415403 -0.06275633 0.25247696 0.09869251
0002e0 16 f2 5b 3e 80 4f 39 3e 0c 23 06 bd 36 be b1 bd
       0.21479067 0.18096733 -0.032748267 -0.08678858
0002f0 f1 fd ac be 26 8a 02 3e b3 b9 8f 3e 42 b7 77 3e
       -0.33787492 0.12748012 0.28071365 0.24191001
000300 cc 5f 7f be d0 2c 81 3c a2 36 7f be eb 4b 47 be
       -0.24938887 0.015768439 -0.24923185 -0.19462554
000310 40 f6 52 be 28 73 f7 3d 5d be 57 be 00 c2 fc bb
       -0.2060175 0.12082511 -0.21068712 -0.0077135563
000320 d1 8c 8e 3d 82 15 94 3e 53 01 55 be 0c 3b 93 be
       0.06960452 0.2892266 -0.20801286 -0.28755987
000330 49 0a 86 be 2b 7f 37 3e e6 23 02 be 11 b0 98 3e
       -0.26179722 0.17919604 -0.12709007 0.29821828
000340 67 88 15 3e fc 06 78 3d cd 11 7b 3c 0e e2 b4 bd
       0.14602815 0.060553536 0.015324068 -0.08832179
000350 9e d4 d5 3c 43 ce a9 bd 80 ce 22 bb 40 c6 38 3d
       0.02610236 -0.082912944 -0.0024842322 0.04511094
000360 f8 64 89 be b4 75 34 be 88 62 96 3e 70 14 96 be
       -0.26834846 -0.17623025 0.29372048 -0.29312468
000370 e2 fc 0a bd 81 da b8 3e 22 c8 02 3e c0 01 24 3c
       -0.033932574 0.36104205 0.12771657 0.010010183
000380 87 df 9c be 92 58 33 3e c4 ef 80 be 28 8a cd bd
       -0.30639288 0.17514256 -0.25182927 -0.10036117
000390 94 f0 f2 bd 18 74 56 bd 00 72 7d 3b 5d 4e 95 3e
       -0.11862293 -0.05235681 0.0038672686 0.2916135
0003a0 8e 2e c0 3d 83 89 be 3e 46 f1 89 3e 30 7f 8a be
       0.093838796 0.37214288 0.2694189 -0.2705016
0003b0 f7 2d d9 3d 72 a9 a0 be eb 70 19 be b4 f7 d4 3d
       0.1060447 -0.31379277 -0.14984481 0.10398808
0003c0 26 f2 2e 3e 25 2c a8 3e 91 0f 5a bd 0f 3a 33 bd
       0.1708456 0.3284618 -0.0532375 -0.04375654
0003d0 85 3c 00 3e e6 0e d4 be 9b df 82 3e 5f b0 95 be
       0.12523086 -0.41417617 0.25561222 -0.29236123
0003e0 80 ac 9f 3b e8 35 76 bd 0d ad 3e be 70 67 3f 3d
       0.0048728585 -0.060110003 -0.18620701 0.046729505
0003f0 33 b0 95 3e 74 a9 d3 bd b2 f0 56 be 5d e5 05 be
       0.29235992 -0.10335055 -0.20990255 -0.13075776

net.fc1.bias f4 [64]
000000 7e 6b 56 bd 1d 39 97 bd 90 dd 0d 3e ae 8d 3d 3e
       -0.052348606 -0.0738394 0.1385405 0.18511078
000010 bf e1 30 be 22 73 b5 3d 89 0d 62 3e 30 16 10 bd
       -0.17273615 0.088598505 0.22075476 -0.03517741
000020 e8 33 1d 3e c2 87 f8 bd 0d 3f 3c 3e 1e 21 83 be
       0.15351832 -0.12135269 0.18383427 -0.25611204
000030 a0 e3 54 be 74 c4 37 be db f5 c5 3e 74 d6 c2 bd
       -0.20789957 -0.17946035 0.38664135 -0.0951356
000040 00 0e 7d ba f7 67 2f be 56 06 b6 3e c0 62 ce 3e
       -0.000965327 -0.17129503 0.3555171 0.40309715
000050 ba 85 88 be 36 bf 92 be 69 8e 91 be 66 ff 58 3d
       -0.26664525 -0.28661507 -0.28428963 0.052977942
000060 f4 91 b8 bd 29 23 2f be ed 3b e0 bd d1 c0 9a 3d
       -0.09012213 -0.17103256 -0.1094893 0.07556308
000070 6f 29 3d be a5 d7 07 3e cc 45 9d bc 40 6e 2f be
       -0.18472837 0.13265856 -0.01919832 -0.17131901
000080 e7 cf d2 3d 96 cc ac 3e 50 c4 74 be 00 7d 86 3c
       0.102935605 0.33749837 -0.23903012 0.016417027
000090 18 82 05 be ed dc bb 3e 97 be ab be 45 89 ad be
       -0.13037908 0.3669199 -0.33543846 -0.3389379
0000a0 16 90 bb 3e e8 0e 65 be 0e db 03 3e 70 a3 9c bd
       0.36633366 -0.22368968 0.12876531 -0.07648361
0000b0 a4 e0 18 bd 98 b8 a1 bd f7 7b 79 3e 4f 14 66 3d
       -0.03732361 -0.078965366 0.24363695 0.05617171
0000c0 1f 41 ba be b3 bb 55 be 94 d6 f6 bd 99 f0 72 3e
       -0.36377808 -0.20872383 -0.12052646 0.23724593
0000d0 94 49 6a be ca 1c cc 3e f4 45 a1 bd 48 04 82 bd
       -0.2287963 0.39865714 -0.078746706 -0.06348473
0000e0 ba 82 8c 3e 37 ed 6c 3e 5f dd a5 3e 37 77 6f 3e
       0.27443486 0.23137365 0.32395455 0.2338532
0000f0 d4 a6 db bd e2 33 70 be 80 7e d7 bc cc cc b4 3e
       -0.10725179 -0.23457292 -0.026305437 0.35312498

net.fc2.weight f4 [64, 64]
000000 ee d8 ee bb 39 61 a1 bd 68 c4 bc 3d d5 12 1e 3e
       -0.0072890436 -0.07879872 0.09217149 0.15436871
000010 00 c2 11 bd 7f fd 1d be 1b 5f 87 bd 90 4e 00 3d
       -0.035585403 -0.15428732 -0.06609937 0.031324923
000020 e2 31 cd 3c 4a a9 99 bc fc 8d 83 3d c0 6f 42 3d
       0.0250482 -0.018757481 0.06423566 0.047469854
000030 06 9a cb 3d fc c0 c6 3d 06 23 a4 3c 7e bb e1 bd
       0.09941487 0.097047776 0.020036232 -0.110220894
000040 d8 53 e7 bd 48 06 ef 3d ff 8b b9 3d 50 e1 bf 3d
       -0.11295289 0.1167112 0.09059905 0.09369147
000050 20 7f dd bd 5e 0f ed 3d f7 99 e4 3d 96 68 18 3e
       -0.10815263 0.11575197 0.11162179 0.14883646
000060 30 f5 d7 bd aa b7 04 bd 5a cb d7 bd 31 a5 93 3d
       -0.10544813 -0.03240172 -0.10536833 0.07209242
000070 04 ff 5b bd c6 38 8c bc 86 37 e4 3d e8 d8 6c bd
       -0.05371 -0.017116915 0.11143403 -0.057824045
000080 4f b2 c5 bc f8 ae 3d 3d 50 da 44 bc 22 6b c7 bd
       -0.024132876 0.04630944 -0.01201494 -0.09737231
000090 46 6b d5 3d 42 c8 8c bd 30 9d 35 3d 24 aa de 3d
       0.104208514 -0.06874134 0.04433936 0.108722955
0000a0 cd 95 dd 3d 50 fa 90 3c d7 0e 18 3e ae da 71 3d
       0.10819588 0.017697483 0.14849411 0.05904644
0000b0 05 f3 6a bc 06 2d f2 3d 87 72 9c 3d e7 7c 9e bd
       -0.014340167 0.11824994 0.07639032 -0.07738667
0000c0 0d bd e0 3b fe 60 ae bd e2 72 e0 3d b2 33 c8 3c
       0.006858474 -0.085145935 0.10959412 0.024438713
0000d0 b2 59 e9 bd 4c 64 7d bd 74 c5 a0 3d 90 04 05 3d
       -0.11394061 -0.06186323 0.07850161 0.032475054
0000e0 b6 0a 38 3d 33 38 54 3d da bb a9 3d 7d 6d 2f bc
       0.04493209 0.05181141 0.08287783 -0.010707256
0000f0 78 ac 4b bd 0e 49 ef bd b0 da c0 bd d8 27 b9 3d
       -0.049725026 -0.11683856 -0.09416711 0.09040803
000100 58 fd a2 bd e4 fd 48 3c 01 3d 0d 3d 71 86 5e 3b
       -0.07958478 0.0122675635 0.034482006 0.0033954645
000110 40 fa a5 bd 56 c2 e9 3d 18 fe a0 bd 66 8f d2 3d
       -0.08104372 0.1141402 -0.078609645 0.10281257
000120 d2 64 d5 bd 4b 0b 14 bd ab f3 7f 3d 7c 31 51 bd
       -0.104196206 -0.036143582 0.06248824 -0.051072583
000130 0e 0d d7 3d 06 2b b0 bd d4 3a e2 bd e0 de 66 bd
       0.10500537 -0.08601956 -0.11046377 -0.056364894
000140 b0 87 a5 3c a8 b6 eb 3d bb 92 85 bd 43 99 20 3d
       0.020206302 0.11509448 -0.06522127 0.03920866
000150 ac 5c 00 bd 28 11 de bc 9f 04 b2 3d 9a 9e d1 bd
       -0.03133838 -0.02710779 0.08692288 -0.10235329
000160 60 86 59 3c a1 82 e5 3d 91 1d 7a bc 6e 26 bc 3d
       0.013276666 0.11206556 -0.015265838 0.091870174
000170 84 ac 1d bd ef c1 c2 3d 04 c8 01 be 28 95 93 bc
       -0.0384946 0.09509646 -0.12673956 -0.01801546
000180 fb 1c e1 bc d6 dd 2b 3d 24 df 48 3d a6 8f c4 3d
       -0.02747964 0.041959606 0.04904093 0.09597711
000190 c8 8f 98 bc 8b 9f 28 bc ca 4f af 3d 90 88 0a bd
       -0.018623248 -0.010291944 0.085601404 -0.033821642
0001a0 10 6b e0 3d aa 72 aa bd 45 69 9c bc d3 b8 51 bc
       0.109579206 -0.08322652 -0.019093165 -0.012800413
0001b0 00 a7 4d 3d 66 05 af 3d d0 4e a2 bc 8e 95 df bd
       0.05020809 0.085459515 -0.019812971 -0.10917197
0001c0 28 b1 7d 3d cc 27 19 3d 88 ab 4d 3d 2f 73 a9 bd
       0.061936527 0.03739147 0.050212413 -0.08273923
0001d0 ae c2 a4 3d d3 a6 e7 3d 30 b5 31 3c cc 1d ef bd
       0.08044945 0.11311116 0.010846421 -0.11675605
0001e0 03 9f b7 3d a8 4d c9 bd d8 75 be 3c 63 3b 51 3c
       0.08965876 -0.09829265 0.023249552 0.012770507
0001f0 7c a2 6f bd b0 46 32 3d 8a f9 e4 bd 9d 23 bd 3c
       -0.058504567 0.043524444 -0.11180408 0.02308827
000200 8f 0d 21 bd d1 ea 01 3d 95 92 70 3d 24 1e 14 3e
       -0.03931957 0.03171808 0.05873354 0.14464623
000210 1c 49 74 bd 64 09 8a 3d 5d ba 05 3d bc 29 73 bd
       -0.059640035 0.06740072 0.032648433 -0.059365973
000220 ff 9f 18 be 7e 9b 8a bd c3 26 28 3e 98 62 ff bc
       -0.14904784 -0.06767939 0.16421036 -0.031174943
000230 20 97 cc 3b 3c cf 0a 3d 70 c4 01 3e 48 7d da 3d
       0.0062436014 0.03388904 0.12672591 0.10668427
000240 d2 9e cf 3d 84 aa bd bd bb 25 a1 3c a5 80 01 bd
       0.101377144 -0.09261039 0.019671312 -0.031616826
000250 1c 44 92 bd 68 e6 f2 3c 53 43 cf 3d d5 36 78 bd
       -0.07141897 0.029650882 0.10120263 -0.060599167
000260 ae ee 9a 3d c1 40 14 bd 90 14 3a bd 46 1c 39 3d
       0.07565056 -0.036194567 -0.045429766 0.04519298
000270 30 99 e7 bc df fe 5e 3d b7 4e 1f bd ec ea d9 3d
       -0.028271288 0.054442283 -0.038893428 0.10640511
000280 a6 59 cb 3c 75 ae 1c bd 3c eb 15 3d 3c 05 b6 bd
       0.024823021 -0.038252313 0.03660129 -0.08887717
000290 4c 23 cb bd 08 d5 9f 3c cc f7 ca 3d 48 e3 10 bd
       -0.09918842 0.01951076 0.09910545 -0.035373002
0002a0 0d a7 d4 3d 7a fc db 3d e9 76 02 3e 5b a2 ab bc
       0.10383425 0.107415155 0.12740673 -0.02095144
0002b0 0d e5 01 3d 60 1e 21 bd ac 27 5e bd cc d2 3e 3d
       0.03171258 -0.03933561 -0.054237053 0.04658775
0002c0 39 99 0c 3e 1a af d7 3d 70 14 3f 3c b4 c5 99 3d
       0.13730325 0.10531445 0.0116625875 0.07508412
0002d0 e8 a7 5d bd 7e 9b 78 3d 2c 0c 55 bd c4 d4 b1 bd
       -0.054115206 0.060695164 -0.05201356 -0.0868316
0002e0 9a e2 98 3c e5 7f f2 3d e3 94 94 bd 66 fd 11 3e
       0.01866274 0.118408 -0.072549604 0.1425682
0002f0 ac 2e 38 3d 5c 5b b3 bd c8 93 dc bc 7f d7 15 3e
       0.044966385 -0.0875766 -0.026925936 0.14632986
000300 e8 0d fd bc 48 a9 e5 3c 7e ff d2 3d 0a 00 3e bd
       -0.03089042 0.028034821 0.103026375 -0.046386756
000310 b8 56 8c 3d b5 56 fc 3d 0f 36 09 3e 4a 36 a3 bd
       0.06852478 0.123212256 0.13399528 -0.07969339
000320 94 8a 19 3e f3 0f a1 bc c1 63 3e 3e 46 ae f5 bd
       0.1499427 -0.019660925 0.1859274 -0.11996131
000330 9c 16 e4 bd f8 3b 9d 3d 6a 17 97 3d a0 4b ec 3b
       -0.11137125 0.07677454 0.07377513 0.0072111636
000340 1c c3 8d bd 7c c5 56 bd 1e f5 c3 3c a6 eb 78 bd
       -0.0692198 -0.05243443 0.023920592 -0.060771607
000350 20 dd d4 3b 80 1a b5 3c 2d a7 9c bc 56 8d d4 3d
       0.0064960867 0.022107363 -0.019122684 0.1037852
000360 e6 e7 f2 3d da 6e cb 3d 6a 54 6b bd 0d f1 80 bc
       0.11860637 0.09933253 -0.05745355 -0.015739942
000370 4c ca a3 bd 1c 74 d2 bc 0a 03 2a 3d 40 1c b5 bc
       -0.079975694 -0.02569013 0.041506805 -0.022108197
000380 87 75 f4 3d 54 1e 58 3b 8a 15 cc 3d 50 a1 b3 bd
       0.11936479 0.0032977061 0.09965046 -0.08771002
000390 00 44 ba 39 2c c5 34 3e 06 90 fe 3d 88 4a 94 bd
       0.00035527349 0.1765334 0.12429814 -0.07240778
0003a0 91 0f 9c 3d 50 ea 71 3c 65 17 c1 3a c3 69 37 3c
       0.076201566 0.014765337 0.0014731704 0.011194649
0003b0 fc d6 c9 3d 74 03 b2 bd b2 78 60 3d 10 68 e8 3d
       0.09855458 -0.08692065 0.054802604 0.11347973
0003c0 d7 e8 0c bb e6 a4 d4 3d a0 c7 06 bc d7 8a ef 3d
       -0.0021501088 0.103830144 -0.008226305 0.116964035
0003d0 b8 84 fd 3d 4d c3 86 3c cc 1c 8b 3d 6c 72 12 bd
       0.1237883 0.016450549 0.06792602 -0.035753652
0003e0 46 2a fc bc 89 4f 26 3d 87 f1 76 3d ed cf 8a 3c
       -0.030781876 0.040603194 0.060288932 0.01694485
0003f0 20 03 f0 3c c0 56 9a 3b 9a 46 a2 3d 00 61 1f 3d
       0.029298365 0.0047100484 0.079236224 0.038910866

net.fc2.bias f4 [64]
000000 05 18 85 3d 07 ef 01 be aa a7 37 bd d2 35 20 3e
       0.06498722 -0.12688838 -0.04483763 0.15645531
000010 c8 df 84 3d fe 4b 31 3d 60 5a 81 3b 14 1f 5d 3c
       0.064879954 0.043285362 0.003947541 0.013496179
000020 18 00 ee 3c f0 c7 ae bd 98 90 0b bd 5c f3 ea bd
       0.02905278 -0.08534229 -0.034073442 -0.11472198
000030 78 43 c9 bd c8 ab c0 bc 66 b5 30 3c c1 b1 91 3d
       -0.09827322 -0.023519412 0.010785436 0.07113982
000040 ec db 46 3c 88 09 a6 bc 93 6e 0f bc a2 e0 ee 3d
       0.012137394 -0.020268217 -0.00875439 0.11663939
000050 b4 59 f1 ba 30 6e bf bc 4a c7 05 bd 74 6e ce bd
       -0.0018413574 -0.023367971 -0.03266076 -0.10079661
000060 0a ad 13 3d 36 a8 ec bd d0 9a 89 bd 92 f2 a2 bd
       0.036053695 -0.11555521 -0.06718981 -0.07956423
000070 76 b3 be 3d 59 17 93 bd 11 f5 d0 3d 2d c4 82 3d
       0.09311573 -0.071821876 0.10202993 0.06385074
000080 ca 00 ad bd 11 0e c9 3d 3c 0f c3 3c 04 d4 d8 bd
       -0.08447416 0.09817136 0.023810975 -0.10587314
000090 6b 03 42 bd 90 a2 db 3d 7e ba 01 be f4 4e 57 3d
       -0.04736654 0.10724366 -0.12668797 0.05256553
0000a0 53 ad c1 3d d1 bf bc bc 2e f4 20 3c 09 d8 5b 3c
       0.09456887 -0.023040684 0.009823842 0.013418206
0000b0 f6 bf ab bd e8 7b c8 3d b0 c5 b5 bd 00 15 c0 ba
       -0.08386223 0.09789258 -0.088755965 -0.0014654696
0000c0 ac 71 bc 3d 38 68 a0 bd 4e f5 d9 3d 05 31 80 bd
       0.09201369 -0.07832378 0.10642491 -0.0625935
0000d0 f0 0e 09 3e 14 06 64 3d 1d 32 33 3d 6c f3 d4 bd
       0.13384604 0.05566986 0.043748964 -0.103979915
0000e0 36 cd a3 bb 74 9c 35 3d 57 af a9 bd 48 4a 27 3d
       -0.0049988283 0.04433866 -0.082853965 0.040842324
0000f0 a2 1f ff bd 27 38 cb bd 10 6c 5e bc 33 8d 19 3e
       -0.12457205 -0.099228196 -0.013575569 0.1499527

net.out.weight f4 [4, 64]
000000 74 3d 80 bd da 3d 28 3d 0b ca e3 bd 3f 6f ad bd
       -0.06261721 0.04107461 -0.11122521 -0.08468484
000010 fa 0c 8a bd 4c 3e 04 be 68 a6 9c 3d 32 a4 9f 3d
       -0.06740756 -0.1291439 0.07648927 0.0779499
000020 b8 03 c7 bd 4c 0a 1d 3d 80 82 53 bd 16 36 93 bd
       -0.09717506 0.038339898 -0.051638126 -0.071880504
000030 50 da 79 bc 98 cd 1e bd d8 9e 08 be 5c 5d 86 bb
       -0.015249804 -0.03877029 -0.13341844 -0.004100485
000040 3e b3 84 3d 98 02 9e bc 90 42 0f bc c2 60 55 bd
       0.064795 -0.019288346 -0.008743897 -0.05209423
000050 2b 11 f8 bd 82 87 87 3d aa 75 a7 3d e0 2d 3b bc
       -0.121126495 0.06617643 0.081767395 -0.011424512
000060 36 56 54 bd ba 44 ce 3d da ad d1 3d 3c 70 be bd
       -0.05184003 0.10071702 0.10238238 -0.09298751
000070 c8 1b 6d bd 2d 7f 32 be b4 8e 5d 3d d5 2e 80 3d
       -0.057887822 -0.17431326 0.05409117 0.062589325
000080 28 59 3a bd 6c 3c 24 3d 35 06 f3 bc 68 40 dc bd
       -0.045495182 0.040096685 -0.029666046 -0.10754472
000090 1a 14 ac 3c 2b 04 c4 3b 80 29 34 3b 18 8a 44 bd
       0.021005679 0.005981942 0.0027490556 -0.04798326
0000a0 6e 80 04 bd 1e 90 0e 3d 5a f7 e5 3d a2 f5 2e bd
       -0.032349043 0.03480541 0.11228819 -0.042714722
0000b0 50 3e 5a 3d cc f3 05 bd da a0 98 3d 60 65 49 bd
       0.053282082 -0.032703206 0.07452555 -0.049168944
0000c0 04 10 26 be 81 78 4e 3d e6 0f 5c bc d9 55 fa bc
       -0.16217047 0.05040789 -0.013431525 -0.030558513
0000d0 9a 76 95 3d 80 b4 73 3c f3 22 ff bb 9c a1 50 3d
       0.07298012 0.0148745775 -0.0077861487 0.050935373
0000e0 f2 08 9b bd e0 76 db bb e5 f0 ce 3b f3 c6 a2 bd
       -0.075700656 -0.0066975206 0.006315338 -0.07948103
0000f0 9e 3d d7 bd 26 5e ca bb ae 73 9c 3d 87 6c fd bd
       -0.105097994 -0.006175774 0.07639252 -0.123742156
000100 c4 5f 0b 3e c8 87 e9 3c 70 d3 39 3d 43 79 35 bc
       0.1361075 0.028507128 0.04536766 -0.011076274
000110 db bd b9 bd 59 5a 18 bd c0 47 7a 3b f9 eb 59 bd
       -0.09069415 -0.037195537 0.003818974 -0.053203557
000120 2a fc e3 3d 3e d9 a3 bd 26 6c ac bd fc 9b 35 bd
       0.11132081 -0.0800042 -0.08419065 -0.04433821
000130 c0 ab e5 3d 54 1d 6a bd d5 32 cd 3d a6 03 a4 3d
       0.11214399 -0.057156876 0.10019461 0.080085084
000140 7d 7d 9a bb bc 67 84 3d b8 68 73 3d 66 55 31 bd
       -0.0047146664 0.06465098 0.05942604 -0.043294333
000150 9c 5c 03 bd c8 f7 f7 3d 62 26 c3 3d 40 12 7a bd
       -0.03207074 0.121078074 0.09528805 -0.06105256
000160 6b 75 ea bb 68 7c 8f 3d 5e f6 81 3d 40 57 22 3c
       -0.0071551106 0.070061505 0.06345819 0.009908497
000170 b2 b8 a4 bd 5d 89 cc bd ef 42 3f bd a9 a7 8b 3d
       -0.0804304 -0.099871375 -0.046694692 0.06819088
000180 70 56 5a bc 80 09 d6 bd 74 54 0a bd cc 87 ff 3d
       -0.013326272 -0.10451031 -0.033771947 0.12477073
000190 cc 91 cd bd 4b 88 e4 bd de ed a0 3d 6a eb 0a 3e
       -0.10037574 -0.11158808 0.078578696 0.13566366
0001a0 a9 4f d7 bd 6e 95 ac bd 10 52 05 bd 6f 9b 02 3e
       -0.10513241 -0.08426939 -0.032548964 0.12754606
0001b0 62 4b 91 bd 60 1a 2f 3c cc fa d0 3d a8 40 35 bd
       -0.07094456 0.010687441 0.10204086 -0.044251114
0001c0 17 88 dd bc a6 79 9d bd 58 7a d0 3c bd 1e 0b 3e
       -0.027042432 -0.07689218 0.025448963 0.13585944
0001d0 2e 50 e7 3d 9a f0 b3 3d 15 07 21 3d 90 a6 a2 bc
       0.1129459 0.087861255 0.039313395 -0.019854814
0001e0 bb 6e 86 bc 40 02 92 3d 97 ba 41 bb cf c7 cc bd
       -0.016410222 0.071293354 -0.002956068 -0.09999048
0001f0 b4 c9 33 bd c3 52 87 3d d8 97 f9 3d 12 d4 25 bc
       -0.04389353 0.066075824 0.12187165 -0.010121362
000200 08 2c 16 be bf 0a b0 bd 32 0c 06 be 0c 27 7b 3c
       -0.14665234 -0.085958 -0.1309059 0.015329134
000210 a0 dc 8c 3d 76 04 d4 3b f4 88 30 3d 6c c7 a6 3d
       0.068780184 0.0064702583 0.04309936 0.081435055
000220 4c 08 af 3d aa dd 98 3d b8 27 8f 3d c0 8a 0a 3d
       0.085465044 0.07464154 0.069899976 0.03382373
000230 44 23 84 3d 86 a8 af bd 6d 59 f4 bd 49 a2 48 3c
       0.06452039 -0.08577065 -0.11931119 0.012245723
000240 56 78 48 3c 24 0e e1 bd de 7e ba bd 68 35 0e be
       0.012235722 -0.10989025 -0.09106229 -0.1388756
000250 66 9d b3 3d 56 5f a7 3d dd a2 cb bd 88 80 9a 3c
       0.08770256 0.08172481 -0.09943173 0.018860117
000260 a6 35 8c bd 2a 8c de 3d 3c de e7 bd 26 c3 ba bd
       -0.0684617 0.10866578 -0.11321685 -0.09119253
000270 fe 22 d5 bd be 52 68 3d e1 2c 86 bd a0 9d c6 3d
       -0.10407065 0.056719534 -0.06551529 0.09698033
000280 98 12 2d 3d 04 43 7a bd 5c 68 85 bd 90 32 4f bd
       0.04225406 -0.061099067 -0.065140456 -0.05058533
000290 e2 d1 0a 3d 56 ee 92 bd a2 a8 18 3d a4 78 e6 bc
       0.033891566 -0.07174365 0.037270196 -0.028133698
0002a0 b5 d8 0c be 78 0b 00 be a8 fa a7 bd 2e d9 04 3d
       -0.13754542 -0.12504375 -0.08202106 0.03243368
0002b0 b0 e1 dd 3c c0 fa 4d bb d6 6e 98 bd 8e a5 fd bd
       0.027085155 -0.0031429976 -0.07443015 -0.12385093
0002c0 aa d5 a1 bd 0c 6f d3 bd 56 48 26 be d2 ff 22 be
       -0.07902081 -0.10323915 -0.16238531 -0.159179
0002d0 e4 8d 04 be 36 de f8 bd b0 a4 70 bb 8c 93 3f 3d
       -0.12944752 -0.121517584 -0.0036719255 0.04677157
0002e0 6a 7e 2f 3d c0 d8 fe bd 49 e3 84 3d 3a 63 24 bc
       0.042845167 -0.124436855 0.06488664 -0.010033423
0002f0 12 e7 82 3d c0 7c 30 38 b0 de 75 3d 80 60 1c be
       0.063917294 4.2077852e-05 0.060026824 -0.15271187
000300 a3 6f ab bc ac ff ca 3d 09 52 7b bc 39 e0 3f be
       -0.020927256 0.09912047 -0.015339383 -0.18737878
000310 ad 6a b4 bd a1 cc ab bd d6 21 86 3d ec bd 41 bd
       -0.08809409 -0.08388639 0.065494224 -0.047300264
000320 50 47 93 3c f0 bc 33 bd c8 ab a2 bc 80 12 23 bb
       0.01797834 -0.043881357 -0.019857302 -0.0024882853
000330 da ff 92 bd 1c b0 b1 bd 39 47 13 3d 58 ea aa 3d
       -0.07177706 -0.08676168 0.035956595 0.08345479
000340 38 0d f1 bb ee 95 dd 3d ab 75 ba 3d 94 c5 16 be
       -0.007356312 0.108196124 0.09104475 -0.14723808
000350 36 77 e3 bd 34 d5 af bd de a8 94 3b 40 2d 4f 3b
       -0.11106722 -0.08585587 0.004536732 0.0031612664
000360 89 7e ac bd 50 12 be 3d 2c 20 48 bd 42 1b 8c bd
       -0.08422572 0.092808366 -0.048858806 -0.068411365
000370 fa fb b5 bd 92 e0 ee bd d2 6c d1 3d 78 5a c3 bd
       -0.08885951 -0.11663927 0.10225834 -0.0953874
000380 e4 e0 0c bd e0 b8 50 3d 89 ad 26 be a4 61 9b bd
       -0.03439416 0.05095756 -0.16277136 -0.07586983
000390 b1 37 8d 3d 8a 57 dc bd 1c d7 84 bd 69 7c ac bd
       0.06895388 -0.10758884 -0.06486341 -0.08422167
0003a0 3d 05 b0 bd 13 2d 21 bd 54 f1 58 3d e9 d0 27 be
       -0.08594749 -0.039349627 0.052964523 -0.16388287
0003b0 9c a4 e8 3d 90 64 f3 bd 18 68 2d 3d cc 76 10 bd
       0.11359522 -0.11884415 0.0423356 -0.035269544
0003c0 75 05 f1 bd 54 ec e0 3d e5 45 3f be ac 36 67 bd
       -0.11768619 0.10982576 -0.18679006 -0.056448624
0003d0 10 77 08 3d cc dc e4 3d c9 bc 33 be 40 c0 76 3c
       0.03331667 0.11174926 -0.17552485 0.015060484
0003e0 58 05 ee 3d 6a c2 fa bd 64 67 98 3c 8f 7a 14 be
       0.11622113 -0.12244113 0.018603988 -0.14499877
0003f0 98 3b a6 3c 58 7f 08 be e0 e7 7b 3d 0e df b7 bd
       0.020292088 -0.13329828 0.06150043 -0.08978091

net.out.bias f4 [4]
000000 a2 33 d9 3c cd d0 a0 3c 3c b5 51 bd a5 dc a4 bd
       0.026513878 0.019630814 -0.05119823 -0.08049897

net.fc1.weight f4 [64, 8]
000000 c3 df d7 ba c3 3c 43 3e 9f 79 94 be 2f bb 85 be
       -0.0016469884 0.19066148 -0.2899904 -0.26119372
000010 fb 76 0c be 63 1e c0 3d 40 8a e5 bb 41 87 8f 3e
       -0.13717262 0.09380796 -0.007005006 0.28032878
000020 9e d6 f8 bc e2 a5 c1 3d 13 c7 d8 bd 65 60 90 bd
       -0.030375775 0.09455468 -0.105848454 -0.07049636
000030 d4 72 ad be b5 cb 70 be 9f 3d 15 be 40 94 56 3c
       -0.3387667 -0.23515208 -0.14574288 0.013096869
000040 46 1a 0e 3e 1d 35 58 3e 03 77 76 be 62 a1 1c be
       0.1387721 0.21114011 -0.24068837 -0.15295938
000050 ca 85 04 3e 09 d4 96 3e e8 03 95 bd 7b 75 87 3e
       0.12941661 0.29458645 -0.07276136 0.26456818
000060 8e 52 65 bd cb 54 1d 3d b3 6b a4 3e 32 70 a8 be
       -0.055986933 0.038410943 0.32113418 -0.32898098
000070 ea f0 64 be f5 5b b9 bd 66 1f 0d be 9d 66 9c 3e
       -0.22357526 -0.090507425 -0.13781509 0.30547038
000080 86 aa 6a be 86 a8 26 be 53 ef 7c be 20 89 a9 be
       -0.22916612 -0.16275224 -0.2470067 -0.3311243
000090 2d 56 53 be 97 9a 9b 3e 5e 8c 21 3e 5e 78 2f 3e
       -0.20638342 0.3039138 0.15776202 0.1713576
0000a0 50 52 98 3c 7b 9c 39 be 70 01 75 3d 4d 04 a9 be
       0.018593937 -0.18126099 0.059815824 -0.33011094
0000b0 68 cc 82 be 4c a4 3a be 86 6c 64 3e 5e 45 54 3e
       -0.25546575 -0.18226737 0.22307023 0.20729586
0000c0 1a 96 21 be 4d 65 61 bc 8d 85 66 3e 01 72 b3 3e
       -0.15779915 -0.013757062 0.22511883 0.35047916
0000d0 f0 b5 10 3e 3a bb 47 3d f2 bd 72 3e 52 2b 55 be
       0.14131904 0.048762538 0.23705271 -0.20817307
0000e0 70 ed 86 3d 65 58 8c be 8a ec 7a be f2 05 3b be
       0.06588256 -0.2741119 -0.24504295 -0.18263987
0000f0 0e d0 23 3e fe 98 11 3e 5b 74 56 be b8 bf da 3d
       0.15997335 0.14218518 -0.20942824 0.10681099
000100 a4 b9 45 3e d3 e0 3a bd 79 c9 4c 3c f2 d1 a9 3d
       0.19309098 -0.045624565 0.012499207 0.08291997
000110 d0 9f 61 3e 60 53 ae 3e 6e 7f 8b be 1c ad 04 be
       0.2203362 0.34047985 -0.2724566 -0.12956661
000120 c3 42 0d 3e b1 78 95 3e 29 03 9d 3e 51 3c a0 3e
       0.13794999 0.29193643 0.30666474 0.31296018
000130 62 26 92 3d 37 e6 9c be 28 38 05 3d 4b 7e 62 be
       0.07136227 -0.3064439 0.032524258 -0.2211849
000140 92 30 a8 be a7 58 a1 3e dd 26 8a 3e 76 15 b5 be
       -0.32849556 0.3151295 0.26982775 -0.35367936
000150 a4 7a 85 3d 59 0d 78 bd 60 4f 6e bd c7 b9 25 be
       0.065175325 -0.060559604 -0.058181167 -0.1618415
000160 66 39 0b 3e d0 6f 56 be 62 b8 04 3e fe 15 37 3e
       0.13596115 -0.2094109 0.12960961 0.17879483
000170 2b 96 81 3e cc 5e 07 3e 45 29 b3 be 76 da 6a be
       0.25309882 0.13219756 -0.34992424 -0.22934899
000180 76 c5 34 3e e4 8c 97 3d d6 35 8d be 0b 78 50 be
       0.1765345 0.0739992 -0.27580136 -0.20358293
000190 37 4b aa 3e ba f2 73 3e a3 db 1d be 40 3d b6 bd
       0.3326051 0.23823062 -0.15415816 -0.08898401
0001a0 4d 70 ac be 00 3c d0 bb 77 51 88 be 67 a1 8b be
       -0.3367943 -0.006354809 -0.26624653 -0.27271578
0001b0 e0 95 9f bc e8 6e 59 3d 0b 44 14 be 5e d3 56 3e
       -0.019480646 0.053084284 -0.14479081 0.20979068
0001c0 6b 4a 5b be 77 c3 a4 3e 0b 21 79 3e 9a 29 99 be
       -0.21415107 0.32180378 0.24329011 -0.29914552
0001d0 6d 42 b6 bd 84 fe 74 3c 90 49 53 3d 88 bb ab 3d
       -0.088993885 0.014953259 0.051583827 0.08385378
0001e0 00 13 0e 3e 50 7d ad 3c 2a a6 30 be 0e 50 2b 3e
       0.13874435 0.021177918 -0.17250887 0.16729757
0001f0 81 a4 ad be 2e 95 56 be 18 42 b5 bd 97 5a 30 be
       -0.3391457 -0.20955345 -0.08850497 -0.17222057
000200 72 4e fd bd 0c 5e 94 be b0 05 9a bd b4 c6 9a 3d
       -0.12368478 -0.28978002 -0.07520616 0.07557431
000210 16 db 6b be 00 a3 94 bc 35 95 81 3e e0 de 14 bd
       -0.23032793 -0.01814413 0.25309148 -0.036345363
000220 60 fd 20 3c 80 dc f9 bc 2c 8a 92 3d ce 32 66 3e
       0.009826034 -0.03050065 0.071552604 0.22480318
000230 49 78 ab 3e 2e ea 65 3e b9 dc ab 3e 40 77 d1 bc
       0.33490208 0.22452614 0.33566836 -0.025569558
000240 24 20 a3 be 86 a8 2c be 71 7d 75 3e a5 55 a9 ba
       -0.3186046 -0.16861162 0.23973633 -0.0012919201
000250 0e ed 32 be 8b 34 8a be 46 68 a9 be 24 c8 98 be
       -0.17473242 -0.26993212 -0.33087367 -0.29840195
000260 4f d2 90 bd 73 91 47 3e cb c1 44 3e c2 17 af be
       -0.07071363 0.19489078 0.19214551 -0.34197813
000270 29 cf 60 3e 4d 29 8e be d0 13 99 bd f9 cb 12 be
       0.21954025 -0.27765885 -0.07474482 -0.14335622
000280 e4 77 8b bd d4 2a 8e bd 0c 70 a2 be 88 4c 9c be
       -0.06809977 -0.069417626 -0.3172611 -0.3052714
000290 40 9b 62 bd 80 d2 95 3b 0f 77 24 be 32 61 08 3e
       -0.05532384 0.0045722127 -0.16061042 0.13318327
0002a0 8f ed a2 be c0 76 c3 bc 21 31 9f 3e 34 ac 13 be
       -0.31821868 -0.023860335 0.3109217 -0.14421159
0002b0 05 76 a3 3e 1a 1d 03 3e e6 5c a3 be 96 0f 65 3e
       0.3192598 0.1280407 -0.31906813 0.22369227
0002c0 e8 1b 27 bd d5 9d 21 be b1 c0 90 3e e6 47 92 be
       -0.040798098 -0.15782864 0.28272012 -0.2857048
0002d0 e8 64 1b 3d 60 99 97 bd a9 44 81 3e 4c 1f ca 3d
       0.03793803 -0.07402301 0.25247696 0.09869251
0002e0 4b fc 2e 3e 97 e1 00 3e 02 13 ac bd cd 3a 96 bd
       0.1708843 0.12586056 -0.08402063 -0.07335434
0002f0 c9 af 95 be 01 25 43 3e b3 b9 8f 3e 42 b7 77 3e
       -0.29235676 0.19057085 0.28071365 0.24191001
000300 cc 5f 7f be d0 2c 81 3c a2 36 7f be eb 4b 47 be
       -0.24938887 0.015768439 -0.24923185 -0.19462554
000310 40 f6 52 be 28 73 f7 3d 5d be 57 be 00 c2 fc bb
       -0.2060175 0.12082511 -0.21068712 -0.0077135563
000320 c4 08 82 3c 07 67 6a 3e fc 52 88 be 67 91 79 be
       0.01587332 0.22890864 -0.26625812 -0.24371873
000330 f5 3e 53 be 05 61 7c 3e e6 23 02 be 11 b0 98 3e
       -0.20629485 0.24646385 -0.12709007 0.29821828
000340 7a ea 02 3e c0 5f 37 3d 80 7b 2c bb 00 23 8f bd
       0.12784758 0.04476905 -0.002631873 -0.069890976
000350 d8 b1 35 3d d8 56 a5 bd 80 ce 22 bb 40 c6 38 3d
       0.04435906 -0.08073205 -0.0024842322 0.04511094
000360 20 98 8d be 7f c1 3d be fb 2b 92 3e d8 e7 92 be
       -0.27655125 -0.18530844 0.2854918 -0.28692508
000370 10 f9 cf bc 43 12 b3 3e 22 c8 02 3e c0 01 24 3c
       -0.025387317 0.3497487 0.12771657 0.010010183
000380 87 df 9c be 92 58 33 3e c4 ef 80 be 28 8a cd bd
       -0.30639288 0.17514256 -0.25182927 -0.10036117
000390 94 f0 f2 bd 18 74 56 bd 00 72 7d 3b 5d 4e 95 3e
       -0.11862293 -0.05235681 0.0038672686 0.2916135
0003a0 c3 e1 38 3d 53 a6 a2 3e cf 7c 5e 3e ef e8 65 be
       0.04513718 0.3176752 0.21727298 -0.22452138
0003b0 11 5a 21 3e 4e 79 80 be eb 70 19 be b4 f7 d4 3d
       0.15757014 -0.25092548 -0.14984481 0.10398808
0003c0 8c 09 ed 3d 59 51 88 3e 44 0b e7 bd b0 40 cd 3a
       0.115740865 0.26624563 -0.112814456 0.0015659537
0003d0 f0 68 3b 3e 0a 93 af be 9b df 82 3e 5f b0 95 be
       0.18301749 -0.3429187 0.25561222 -0.29236123
0003e0 80 ac 9f 3b e8 35 76 bd 0d ad 3e be 70 67 3f 3d
       0.0048728585 -0.060110003 -0.18620701 0.046729505
0003f0 33 b0 95 3e 74 a9 d3 bd b2 f0 56 be 5d e5 05 be
       0.29235992 -0.10335055 -0.20990255 -0.13075776

net.fc1.bias f4 [64]
000000 c2 d9 c6 bd 45 f1 05 be de 3c b4 3d d3 6f 01 3e
       -0.09709503 -0.13080318 0.08800672 0.12640314
000010 bf e1 30 be b0 03 00 3d 55 ca 50 3e 30 16 10 bd
       -0.17273615 0.031253517 0.20389684 -0.03517741
000020 33 50 da 3d 9e af b0 bd 39 d6 ff 3d 1e 21 83 be
       0.10659828 -0.08627246 0.124920316 -0.25611204
000030 a0 e3 54 be 74 c4 37 be e9 de a6 3e 74 d6 c2 bd
       -0.20789957 -0.17946035 0.32591942 -0.0951356
000040 00 0e 7d ba f7 67 2f be a3 32 b4 3e e5 4e b1 3e
       -0.000965327 -0.17129503 0.35194883 0.34630504
000050 ba 85 88 be 36 bf 92 be 1d 36 89 be 28 d5 38 ba
       -0.26664525 -0.28661507 -0.26799098 -0.0007050806
000060 f4 91 b8 bd 64 f2 6b be 6a da 01 be f0 cc 88 3d
       -0.09012213 -0.23041683 -0.12680975 0.06679714
000070 6f 29 3d be aa 7d a2 3d 93 fe a3 bd 40 6e 2f be
       -0.18472837 0.07934125 -0.080075406 -0.17131901
000080 26 0d 4b 3d 4d 5b 95 3e 50 c4 74 be 00 7d 86 3c
       0.049573086 0.2917122 -0.23903012 0.016417027
000090 18 82 05 be 99 1f b1 3e 97 be ab be 45 89 ad be
       -0.13037908 0.3459442 -0.33543846 -0.3389379
0000a0 9b dc b1 3e e8 0e 65 be da de 8c 3d a3 14 01 bd
       0.3473862 -0.22368968 0.06878443 -0.03151382
0000b0 7a 94 9a bd 98 b8 a1 bd b1 07 65 3e 2a 3e 82 3c
       -0.07547851 -0.078965366 0.22366215 0.015898783
0000c0 4b c1 b0 be b3 bb 55 be 94 d6 f6 bd 33 35 37 3e
       -0.3452247 -0.20872383 -0.12052646 0.17891388
0000d0 94 49 6a be cb af aa 3e f4 45 a1 bd 48 04 82 bd
       -0.2287963 0.33337244 -0.078746706 -0.06348473
0000e0 d3 d6 8d 3e c7 fc 36 3e a1 03 99 3e 2d 65 50 3e
       0.2770296 0.17869864 0.2988558 0.20351095
0000f0 d4 a6 db bd e2 33 70 be 80 7e d7 bc 95 54 96 3e
       -0.10725179 -0.23457292 -0.026305437 0.29361406

net.fc2.weight f4 [64, 64]
000000 c9 bd 27 bd d5 5b eb bd b7 fa 55 3d b6 41 fb 3d
       -0.040952478 -0.11492125 0.052241053 0.12268393
000010 00 c2 11 bd 5a f9 d3 bd c6 28 e6 bd 90 4e 00 3d
       -0.035585403 -0.103502944 -0.11238246 0.031324923
000020 af b0 0a bc 1d 75 7e bd cf 2c d7 3c c0 6f 42 3d
       -0.008464976 -0.062123407 0.026266484 0.047469854
000030 06 9a cb 3d fc c0 c6 3d 89 15 91 bc 7e bb e1 bd
       0.09941487 0.097047776 -0.017710464 -0.110220894
000040 d8 53 e7 bd 48 06 ef 3d a3 6d 66 3d d3 47 63 3d
       -0.11295289 0.1167112 0.0562569 0.05548842
000050 20 7f dd bd 5e 0f ed 3d 14 85 f2 3d 24 2e e9 3d
       -0.10815263 0.11575197 0.11841789 0.11385754
000060 30 f5 d7 bd f6 48 45 bd 4a 11 b0 bd 56 6c f2 3d
       -0.10544813 -0.048165284 -0.085970476 0.1183707
000070 04 ff 5b bd f1 a8 65 bd 72 2b 88 3d e8 d8 6c bd
       -0.05371 -0.05606932 0.066489115 -0.057824045
000080 49 13 78 bd f4 c1 22 bc 50 da 44 bc 22 6b c7 bd
       -0.060565267 -0.009933937 -0.01201494 -0.09737231
000090 46 6b d5 3d 22 c2 5d bd 30 9d 35 3d 24 aa de 3d
       0.104208514 -0.054140218 0.04433936 0.108722955
0000a0 2c 27 83 3d 50 fa 90 3c 0e de db 3d 2f d8 91 3c
       0.06403956 0.017697483 0.10735713 0.01780328
0000b0 c1 c8 68 bd 06 2d f2 3d 86 8d fa 3c ee b9 f7 bd
       -0.05683208 0.11824994 0.030585062 -0.1209601
0000c0 85 aa 0d bd fe 60 ae bd e2 72 e0 3d d9 ea a0 bc
       -0.03458645 -0.085145935 0.10959412 -0.019643234
0000d0 b2 59 e9 bd 80 be 00 bc 74 c5 a0 3d 90 04 05 3d
       -0.11394061 -0.007857919 0.07850161 0.032475054
0000e0 8c e5 21 3d 9d 96 4e 3c ab fa 42 3d c1 4e f1 bc
       0.039525554 0.012609151 0.047602337 -0.029456498
0000f0 78 ac 4b bd 0e 49 ef bd b0 da c0 bd 83 ff 61 3d
       -0.049725026 -0.11683856 -0.09416711 0.055175316
000100 be 94 97 bd e0 e8 92 3c 10 6d 23 3d a0 01 11 3c
       -0.07401417 0.01793331 0.039898932 0.008850485
000110 40 fa a5 bd f0 d1 f4 3d 26 dd 94 bd 66 8f d2 3d
       -0.08104372 0.11954105 -0.07268743 0.10281257
000120 6e a6 cb bd 58 52 f6 bc 8a 41 8b 3d 7c 31 51 bd
       -0.09943853 -0.030068561 0.0679961 -0.051072583
000130 0e 0d d7 3d 06 2b b0 bd 44 fb d6 bd e0 de 66 bd
       0.10500537 -0.08601956 -0.10497144 -0.056364894
000140 b0 87 a5 3c a8 b6 eb 3d e4 6d 74 bd 0c 1b 37 3d
       0.020206302 0.11509448 -0.059675112 0.04470353
000150 ac 5c 00 bd 28 11 de bc d8 3c bc 3d 7a 65 c6 bd
       -0.03133838 -0.02710779 0.091912925 -0.09687324
000160 60 86 59 3c a8 be f0 3d c8 b5 8c bc a6 c4 c6 3d
       0.013276666 0.11755115 -0.017176524 0.097054765
000170 84 ac 1d bd 00 12 ce 3d f6 a2 f7 bd 28 95 93 bc
       -0.0384946 0.10062027 -0.12091629 -0.01801546
000180 a8 dc b3 bc 78 ee 25 3d 24 df 48 3d a6 8f c4 3d
       -0.021955803 0.040510625 0.04904093 0.09597711
000190 c8 8f 98 bc 60 6d a2 bb ca 4f af 3d 90 88 0a bd
       -0.018623248 -0.004956886 0.085601404 -0.033821642
0001a0 10 6b e0 3d aa 72 aa bd 20 9d 5d bc 00 00 dc bb
       0.109579206 -0.08322652 -0.013526231 -0.006713867
0001b0 a0 75 64 3d 66 05 af 3d d0 4e a2 bc 4e 17 d4 bd
       0.05577624 0.085459515 -0.019812971 -0.103560075
0001c0 28 b1 7d 3d cc 27 19 3d 88 ab 4d 3d 0a eb 9d bd
       0.061936527 0.03739147 0.050212413 -0.07710846
0001d0 ae c2 a4 3d c0 78 f2 3d 30 b5 31 3c cc 1d ef bd
       0.08044945 0.118394375 0.010846421 -0.11675605
0001e0 9c b5 b3 3d c0 cf bd bd 98 63 eb 3c 30 ce 94 3c
       0.087748736 -0.09268141 0.028734013 0.018164724
0001f0 7c a2 6f bd b0 46 32 3d 8a f9 e4 bd c8 39 e9 3c
       -0.058504567 0.043524444 -0.11180408 0.028469935
000200 53 3e a0 bd ec 12 4d bc 6d e8 8b 3c 51 25 dc 3d
       -0.078243874 -0.012516718 0.017078603 0.10749305
000210 1c 49 74 bd ba 00 a4 3d 08 c8 73 bc bc 29 73 bd
       -0.059640035 0.08007951 -0.014879234 -0.059365973
000220 ba ec de bd 33 d6 e8 bd 72 0f fc 3d 98 62 ff bc
       -0.10884996 -0.1136898 0.123076335 -0.031174943
000230 20 97 cc 3b 3c cf 0a 3d 38 0f b0 3d 48 7d da 3d
       0.0062436014 0.03388904 0.08596653 0.10668427
000240 d2 9e cf 3d 84 aa bd bd bb de 9b bc d4 6f 95 bd
       0.101377144 -0.09261039 -0.019027105 -0.0729672
000250 1c 44 92 bd 68 e6 f2 3c 3c 4b f0 3d dd 08 cb bd
       -0.07141897 0.029650882 0.117331 -0.099138
000260 ae ee 9a 3d 6a ae 82 bd e8 72 c7 bc 92 34 cb 3d
       0.07565056 -0.06380923 -0.024346784 0.09922136
000270 30 99 e7 bc bc dd 4a 3c 83 e7 b0 bd ec ea d9 3d
       -0.028271288 0.012381967 -0.08637907 0.10640511
000280 57 5c 78 bc 75 30 b9 bd 3c eb 15 3d 3c 05 b6 bd
       -0.015158734 -0.090424456 0.03660129 -0.08887717
000290 4c 23 cb bd 74 25 0d 3c cc f7 ca 3d 48 e3 10 bd
       -0.09918842 0.008614887 0.09910545 -0.035373002
0002a0 d2 13 75 3d 7a fc db 3d c2 d7 ab 3d 59 3d 84 bd
       0.059833355 0.107415155 0.08390762 -0.06457014
0002b0 1e 1e 50 bc 60 1e 21 bd b8 ce cb bd 5e d7 89 3a
       -0.012702493 -0.03933561 -0.09951538 0.0010516455
0002c0 df ab c2 3d 1a af d7 3d 70 14 3f 3c 15 c4 f0 3c
       0.09505438 0.10531445 0.0116625875 0.029390374
0002d0 e8 a7 5d bd 5a 3d c1 3d 2c 0c 55 bd c4 d4 b1 bd
       -0.054115206 0.0943553 -0.05201356 -0.0868316
0002e0 78 b0 9d 3c 9b 7d 9b 3d 6a c2 e4 bd b3 76 e9 3d
       0.019249186 0.07592317 -0.11169894 0.11399593
0002f0 ac 2e 38 3d 5c 5b b3 bd c8 93 dc bc 00 26 e0 3d
       0.044966385 -0.0875766 -0.026925936 0.10944748
000300 47 5d c2 bd 5c a5 15 bd 98 05 2c 3d d4 3a de bd
       -0.094904475 -0.036534652 0.041997522 -0.10851064
000310 b8 56 8c 3d 9c 42 85 3d 12 d2 a0 3d 4a 36 a3 bd
       0.06852478 0.06506845 0.07852568 -0.07969339
000320 13 83 00 3e ef b2 95 bd c3 cf 00 3e 46 ae f5 bd
       0.12550001 -0.073095195 0.12579255 -0.11996131
000330 9c 16 e4 bd f8 3b 9d 3d 29 6d 66 3c a0 4b ec 3b
       -0.11137125 0.07677454 0.014064112 0.0072111636
000340 1c c3 8d bd 7c c5 56 bd 41 9b 11 bd f7 55 f7 bd
       -0.0692198 -0.05243443 -0.035548452 -0.12076943
000350 20 dd d4 3b 80 1a b5 3c 00 f0 dd b8 ab 6f 29 3d
       0.0064960867 0.022107363 -0.00010582805 0.04136626
000360 e6 e7 f2 3d 03 0f 04 3d d8 6d 3b bd 40 b6 52 bd
       0.11860637 0.03224088 -0.045759052 -0.05144334
000370 4c ca a3 bd 81 6a af bd 1f b9 9c bc 40 1c b5 bc
       -0.079975694 -0.08565236 -0.019131241 -0.022108197
000380 92 dd 67 3d 75 c0 56 bd 8a 15 cc 3d 50 a1 b3 bd
       0.05660779 -0.052429635 0.09965046 -0.08771002
000390 00 44 ba 39 83 13 e4 3d 06 90 fe 3d 88 4a 94 bd
       0.00035527349 0.11136534 0.12429814 -0.07240778
0003a0 91 98 be 3c 50 ea 71 3c c2 f4 6b bd 22 cc 2c bd
       0.023266109 0.014765337 -0.057606466 -0.042186864
0003b0 ed c5 0e 3d 74 03 b2 bd ba 25 b1 3c aa a6 61 3d
       0.034856725 -0.08692065 0.021624435 0.055090584
0003c0 00 ab 45 bd e6 a4 d4 3d a0 c7 06 bc 99 65 6c 3d
       -0.04825878 0.103830144 -0.008226305 0.05771408
0003d0 b8 84 fd 3d 90 80 1c bd cc 1c 8b 3d 6c 72 12 bd
       0.1237883 -0.038208544 0.06792602 -0.035753652
0003e0 28 94 95 bc b7 58 a5 bc d8 45 6a 39 51 52 3d bd
       -0.018259123 -0.020183904 0.00022341998 -0.04622108
0003f0 20 03 f0 3c c0 56 9a 3b 9a 46 a2 3d 4b 12 c7 bc
       0.029298365 0.0047100484 0.079236224 -0.024300715

net.fc2.bias f4 [64]
000000 b7 5d d6 3c 76 aa f8 bd 9a 23 b0 bd 5d 0c ca 3d
       0.026167734 -0.12141888 -0.086005405 0.09865639
000010 35 6c 63 3d fa 48 8e bb 60 5a 81 3b 10 59 8d 3c
       0.055523116 -0.0043421956 0.003947541 0.017254382
000020 18 00 ee 3c f0 c7 ae bd 98 90 0b bd 5c f3 ea bd
       0.02905278 -0.08534229 -0.034073442 -0.11472198
000030 78 43 c9 bd c8 ab c0 bc 14 07 7e bc 70 2e c6 3d
       -0.09827322 -0.023519412 -0.015504617 0.09676826
000040 18 61 b0 3c 88 09 a6 bc 80 f4 62 bb a4 05 91 3d
       0.021530673 -0.020268217 -0.0034630597 0.07081154
000050 87 31 1f bd 30 6e bf bc c1 3a c5 bc 74 6e ce bd
       -0.038865592 -0.023367971 -0.024075868 -0.10079661
000060 c9 ec 86 bc 36 a8 ec bd d0 9a 89 bd 92 f2 a2 bd
       -0.01647033 -0.11555521 -0.06718981 -0.07956423
000070 76 b3 be 3d ba d2 eb bd 06 aa f6 3d 89 e0 3b 3d
       0.09311573 -0.11514802 0.12044148 0.04586843
000080 ca 00 ad bd e4 17 d4 3d c9 74 d9 bc 04 d4 d8 bd
       -0.08447416 0.10356119 -0.026544945 -0.10587314
000090 a7 65 96 bc 1c 09 7d 3d ec e7 f8 bd e3 16 09 bc
       -0.018359018 0.061776266 -0.121536106 -0.008367273
0000a0 8f 6b 54 3d 81 71 43 bd 00 87 3a 3c 89 91 44 bd
       0.05186039 -0.047715668 0.011384726 -0.047990356
0000b0 f6 bf ab bd e8 7b c8 3d b0 c5 b5 bd 00 15 c0 ba
       -0.08386223 0.09789258 -0.088755965 -0.0014654696
0000c0 63 9f 2e 3d f4 1c 91 bd 97 4f 7b 3d aa 8c d2 bd
       0.04263247 -0.070856005 0.0613552 -0.10280736
0000d0 82 8a f6 3d 14 06 64 3d 99 c7 88 bc 6c f3 d4 bd
       0.12038137 0.05566986 -0.016696738 -0.103979915
0000e0 89 18 3b 3b 74 9c 35 3d 82 15 8d bd 93 88 71 bc
       0.002854856 0.04433866 -0.06888868 -0.0147420345
0000f0 a2 1f ff bd 88 ec ff bd 10 6c 5e bc 40 41 d8 3d
       -0.12457205 -0.12496287 -0.013575569 0.105593204

net.out.weight f4 [4, 64]
000000 5b 8c e1 bb a4 84 20 3d 1e c0 50 bd fc 15 23 bd
       -0.0068831868 0.039188996 -0.050964467 -0.039815888
000010 3e 7f 71 bc d2 76 83 bd 68 a6 9c 3d 32 a4 9f 3d
       -0.01473981 -0.064191476 0.07648927 0.0779499
000020 b8 03 c7 bd 4c 0a 1d 3d 80 82 53 bd 16 36 93 bd
       -0.09717506 0.038339898 -0.051638126 -0.071880504
000030 50 da 79 bc 98 cd 1e bd d8 cf 93 bd 99 b8 8e 3c
       -0.015249804 -0.03877029 -0.072173774 0.017422007
000040 38 1e 92 3d 98 02 9e bc 90 42 0f bc d7 ba 09 3c
       0.0713467 -0.019288346 -0.008743897 0.0084063625
000050 7f 24 60 bd 82 87 87 3d 60 28 ea 3d e0 2d 3b bc
       -0.054722305 0.06617643 0.11433482 -0.011424512
000060 86 ab f5 3b ba 44 ce 3d da ad d1 3d 3c 70 be bd
       0.007497254 0.10071702 0.10238238 -0.09298751
000070 c8 1b 6d bd 2c 1e fb bd 3c cc 9c 3d c8 c2 c5 3d
       -0.057887822 -0.12261614 0.07656142 0.09656292
000080 28 59 3a bd 6c 3c 24 3d 11 db ef 3c 68 40 dc bd
       -0.045495182 0.040096685 0.029279264 -0.10754472
000090 e1 5c 48 3d 90 3a 7b 3d 80 29 34 3b 73 a3 41 3c
       0.0489167 0.061335146 0.0027490556 0.0118187545
0000a0 62 c2 e5 3c 60 60 b6 3d ae 31 e2 3d 01 fc 8a 3c
       0.02804679 0.08905101 0.11044632 0.016965868
0000b0 50 3e 5a 3d cc f3 05 bd da a0 98 3d 60 65 49 bd
       0.053282082 -0.032703206 0.07452555 -0.049168944
0000c0 e6 10 d5 bd 11 1f 6c 3d 45 cc 39 3d c9 32 d9 3c
       -0.10403614 0.057646815 0.045360822 0.026513474
0000d0 95 ef 5d 3d 80 b4 73 3c 7a 59 32 3d 9c a1 50 3d
       0.05418356 0.0148745775 0.043542363 0.050935373
0000e0 71 25 8c bd e0 76 db bb 62 20 92 3c 9f a8 a3 bc
       -0.06843079 -0.0066975206 0.017837707 -0.019977866
0000f0 9e 3d d7 bd 90 45 42 3c ae 73 9c 3d d8 f4 8a bd
       -0.105097994 0.011857405 0.07639252 -0.067849815
000100 1a 64 fd 3d c8 87 e9 3c cc c1 59 3d d8 b4 45 bd
       0.123726085 0.028507128 0.053163335 -0.04826817
000110 02 5d cf bd 39 73 3a bd c0 47 7a 3b 10 4e 69 bd
       -0.10125162 -0.04552004 0.003818974 -0.05695921
000120 2a fc e3 3d 3e d9 a3 bd 26 6c ac bd fc 9b 35 bd
       0.11132081 -0.0800042 -0.08419065 -0.04433821
000130 c0 ab e5 3d 54 1d 6a bd 6e d5 ec 3d ab 25 7a 3d
       0.11214399 -0.057156876 0.11564146 0.06107108
000140 f0 96 9b bc bc 67 84 3d b8 68 73 3d 03 41 80 bd
       -0.018992871 0.06465098 0.05942604 -0.062624
000150 aa 9f ca bc c8 f7 f7 3d 6c d1 94 3d 40 12 7a bd
       -0.024734337 0.121078074 0.072665066 -0.06105256
000160 3d 93 05 bd 68 7c 8f 3d 5e f6 81 3d 40 57 22 3c
       -0.03261112 0.070061505 0.06345819 0.009908497
000170 b2 b8 a4 bd 20 d1 bc bd 80 22 d8 bc 6f 57 40 3d
       -0.0804304 -0.09219575 -0.026383638 0.046958383
000180 70 56 5a bc 80 09 d6 bd fd c4 f2 bc cc 87 ff 3d
       -0.013326272 -0.10451031 -0.029634947 0.12477073
000190 7a 8a d1 bd 2e ae c6 bd de ed a0 3d 89 62 00 3e
       -0.102314904 -0.09701191 0.078578696 0.12537588
0001a0 eb 36 f4 bd fe 7c e5 bd 58 18 20 bd fc a4 00 3e
       -0.11924537 -0.11205481 -0.039085716 0.12562937
0001b0 62 4b 91 bd 60 1a 2f 3c cc fa d0 3d a8 40 35 bd
       -0.07094456 0.010687441 0.10204086 -0.044251114
0001c0 ad ea 18 bd a9 c9 a9 bd 3a 09 be 3b 2e fe f0 3d
       -0.03733318 -0.08290417 0.0057994397 0.11767231
0001d0 9a 75 55 3d 9a f0 b3 3d e7 98 ee bb 90 a6 a2 bc
       0.052114107 0.087861255 -0.007281411 -0.019854814
0001e0 f9 bf ae bc 40 02 92 3d 73 2a 7c bc 48 a0 d8 bd
       -0.021331774 0.071293354 -0.01539098 -0.10577446
0001f0 b4 c9 33 bd b0 5f 48 3d d8 97 f9 3d 19 01 b2 bc
       -0.04389353 0.04891938 0.12187165 -0.021729039
000200 1e f0 e0 bd 54 7f bc bd 71 78 cb bd 94 63 4e 3d
       -0.10983299 -0.092039734 -0.09935082 0.050387934
000210 2e a8 ba 3d f5 51 13 3d f4 88 30 3d 6c c7 a6 3d
       0.09114109 0.035966832 0.04309936 0.081435055
000220 4c 08 af 3d aa dd 98 3d b8 27 8f 3d c0 8a 0a 3d
       0.085465044 0.07464154 0.069899976 0.03382373
000230 44 23 84 3d 86 a8 af bd 7e b2 a5 bd 45 9a 05 3d
       0.06452039 -0.08577065 -0.08090685 0.032617826
000240 68 5b 9f 3c 24 0e e1 bd de 7e ba bd e2 d7 cd bd
       0.019452766 -0.10989025 -0.09106229 -0.10050942
000250 fa 45 c9 3d 56 5f a7 3d 30 cb 88 bd 88 80 9a 3c
       0.098278 0.08172481 -0.0667938 0.018860117
000260 2f b8 f3 bc 2a 8c de 3d 3c de e7 bd 26 c3 ba bd
       -0.029750912 0.10866578 -0.11321685 -0.09119253
000270 fe 22 d5 bd 8a fc 94 3d 44 f1 7f bd 9a 6d 96 3d
       -0.10407065 0.072747305 -0.06248595 0.073451236
000280 98 12 2d 3d 04 43 7a bd 17 06 0e bd 90 32 4f bd
       0.04225406 -0.061099067 -0.034673776 -0.05058533
000290 05 c9 5d 3d 18 54 4d bd c8 c1 2d 3d b2 ec 01 3c
       0.054146785 -0.050129026 0.042421132 0.007929968
0002a0 c2 7d ce bd 00 f9 a2 bd f2 80 b1 bd 3c 18 84 3d
       -0.1008258 -0.07957649 -0.086671725 0.06449935
0002b0 b0 e1 dd 3c c0 fa 4d bb d6 6e 98 bd 8e a5 fd bd
       0.027085155 -0.0031429976 -0.07443015 -0.12385093
0002c0 2b 49 39 bd c6 f9 c5 bd 49 57 00 be ec 35 f6 bd
       -0.045235794 -0.09666781 -0.12533297 -0.120220035
0002d0 09 44 a9 bd 36 de f8 bd f1 81 1b 3d 8c 93 3f 3d
       -0.0826493 -0.121517584 0.03796572 0.04677157
0002e0 55 46 4a 3d c0 d8 fe bd 84 40 9c 3d 61 73 bf 3c
       0.04938348 -0.124436855 0.07629493 0.023370447
0002f0 12 e7 82 3d e8 ac fb bc b0 de 75 3d 9e d7 f4 bd
       0.063917294 -0.030722097 0.060026824 -0.11955188
000300 81 4b 2a 3d ac ff ca 3d 91 21 53 3d 3f 5b f3 bd
       0.041575912 0.09912047 0.051545683 -0.11882638
000310 8f d3 13 bd 3f 5b 87 bc d6 21 86 3d ec bd 41 bd
       -0.03609043 -0.016523002 0.065494224 -0.047300264
000320 50 47 93 3c f0 bc 33 bd c8 ab a2 bc 80 12 23 bb
       0.01797834 -0.043881357 -0.019857302 -0.0024882853
000330 da ff 92 bd 1c b0 b1 bd 66 56 d3 3d 02 0b d5 3d
       -0.07177706 -0.08676168 0.103192136 0.1040249
000340 c0 02 78 bb ee 95 dd 3d 1a 45 c5 3d 34 4c a3 bd
       -0.0037843436 0.108196124 0.09632321 -0.07973519
000350 37 8b 4f bd 34 d5 af bd 45 70 21 3d 40 2d 4f 3b
       -0.050669875 -0.08585587 0.03941371 0.0031612664
000360 cf 9e 94 bc 50 12 be 3d 2c 20 48 bd 42 1b 8c bd
       -0.018142132 0.092808366 -0.048858806 -0.068411365
000370 fa fb b5 bd 12 3c 82 bd 7a bd f6 3d 8b 06 7d bd
       -0.08885951 -0.06359114 0.120478585 -0.061773818
000380 e4 e0 0c bd 08 c4 66 3d 18 aa c6 bd a4 61 9b bd
       -0.03439416 0.056339294 -0.097004116 -0.07586983
000390 c0 5e ba 3d c0 5f 44 bd 1c d7 84 bd e7 ac 8c bc
       0.091001034 -0.047942877 -0.06486341 -0.01717229
0003a0 9f 1a 9a bc 99 f2 b2 3c c8 b5 3b 3d 92 6f c7 bd
       -0.018811522 0.021844195 0.045827657 -0.09738077
0003b0 9c a4 e8 3d 90 64 f3 bd 18 68 2d 3d cc 76 10 bd
       0.11359522 -0.11884415 0.0423356 -0.035269544
0003c0 b3 4f 5c bd 6e 6b ed 3d 44 be f8 bd e5 f8 f6 3b
       -0.053786945 0.11592756 -0.12145665 0.0075369948
0003d0 2c fe a1 3d cc dc e4 3d 6c 79 da bd 40 c0 76 3c
       0.079098076 0.11174926 -0.10667691 0.015060484
0003e0 b6 3b fb 3d 6a c2 fa bd 09 ec f1 3c 3e 73 a2 bd
       0.12267248 -0.12244113 0.029531496 -0.07932137
0003f0 98 3b a6 3c d8 92 e7 bd e0 e7 7b 3d f7 5a eb bc
       0.020292088 -0.11307305 0.06150043 -0.028729899

net.out.bias f4 [4]
000000 d6 f2 96 3d 24 9b 66 ba 0f 27 9a bc a7 66 00 bd
       0.07370536 -0.00087969215 -0.018817453 -0.031347897
