rl_exercises/week_7/rnd_dqn_snapshot_10000.pth (torch, 645794 bytes, 48 tensors)

net.fc1.weight f4 [64, 8]
00000000: e303 cfbd 59cd c13e 3b43 2ebf c786 bfbe
00000010: 59ab c93d 6914 10bd 1553 acbe a089 643f
00000020: 8b34 c9be 47c0 c1bc e218 d7bc 1048 aebe
00000030: 6fcc 3fbf da83 83bf cdfe e03c 727d 223f
00000040: ed21 583e d6d6 01be dd31 91be 45dd eebd
00000050: be5e e33e df84 6c3f 8961 41bf e00e ae3e
00000060: c83f 25bd c157 9cbf 3e42 e63e 66b0 3abf
00000070: 31df 41be 84ee ddbe 671b d1bd b3d4 6b3f
00000080: 21e7 ca3e 8437 adbe 142b 62bd da54 27bf
00000090: 61f5 27be 6254 3e3f 114e 9bbd 127e 54be
000000a0: a342 5f3e 03b2 4c3e 3c32 973e e733 3bbf
000000b0: b57d b3be aef8 d5bd 466b a13e f87c bc3e
000000c0: 70a3 e9be 0312 b23e 6749 1f3f 4154 f03e
000000d0: ae55 893d bb56 c23c 52d3 653f 604c 183e
000000e0: 888f b43e 8b1c 20c0 2b6b 97be 0018 acbe
000000f0: d0cf 9a3e d051 cf3e fc97 5bbf 4d70 e93e
00000100: c66e 2d3f e7a7 3a3d 1535 e23e 8ce0 c73e
00000110: 6c6b 0f3f b50f 173f d77a 95bf b0d1 28bd
00000120: 9721 7cbe 12e0 293e 35a3 863e a2c7 6c3d
00000130: 3809 cabe 8c1f 7bbf 42a4 a03d 36d0 103f
00000140: 8061 6fbe 242a e5be 3fb2 ea3e 44fa 5bbf
00000150: b11b 97bd 3f79 0cbf fa49 73bb 486c ba3e
00000160: 161d 643e e410 3dbf ee9e b13e 039b b13d
00000170: aad5 a03e 8461 083f 6889 dcbe 18ee 6cbe
00000180: e59e 263e 2d6a 3a3e 6d52 91be ed18 1a3e
00000190: 14f4 263f ec58 813f 28e1 74bf cda3 15bf
000001a0: 1eee 63be 35ff 1c3f 79f1 a13e a544 2bbf
000001b0: 1854 07bc 5aa4 713e e951 97bf fee9 6cbe
000001c0: a941 983e 49b0 f0bd c3cc 073f 6bc7 67bf
000001d0: 6696 e7bb fcf8 a23e d637 15be 524f cfbe
000001e0: 104e cdbd 8329 97bf 552a 213d a8f1 b4be
000001f0: 7f0e e1be 2fb0 d8be f322 323f 18bf a13e
00000200: 438c 613e 637b c2be 4280 073f 2a06 4fbd
00000210: 5af7 e4be 1a5b a93d c223 0e3f 1425 d9be
00000220: 5fde 613f f29d 11bf 6fc9 3ebb 2fa5 13be
00000230: b7a0 133f 4e77 6c3f cd9e 113f 61ca b6bd
00000240: a681 39bf 1a67 bfbe 13fc 3f3e c518 10be
00000250: f4ba 16bf 8418 8abf 16aa 94bd f5c8 c63e
00000260: 63fa 3abd 0ecf bfbe 2b37 c93e 1647 28bf
00000270: 4964 333e f6e0 30bf bc49 0dbe af89 b33e
00000280: f413 c7bd 0e6d 373f 792c 4c3e 44d8 39bf
00000290: 8468 0cbc f1a1 853e 2a60 9abf 9dcc a9be
000002a0: 74b9 11bf 2821 96bf cc6a 86bc 74b9 e4be
000002b0: a096 6e3f 7054 fcbe dbf5 02bf 637d 403f
000002c0: 4292 913e d202 3bbd 9627 fe3e b19e 07bf
000002d0: 8078 603d 9f52 be3e 53ad 3f3e 5950 a73d
000002e0: 4da2 633f ad25 8abe 82a7 573d 5d9a b8be
000002f0: 4abd 97be f720 fe3e d151 453d f063 92be
00000300: 51dc 06be a5dc 5e3d 0fc1 18bf 19d8 96be
00000310: e7d3 3abe ab66 163f 5e00 4abf 495d c3be
00000320: 5042 b63e 090b 9e3e e665 c3be c2d9 dfbe
00000330: 0e32 e1be 5727 ec3e 54e1 37bf 2cf5 28be
00000340: ddb8 e73e b59c f7bc 9beb 893e 68a5 f9be
00000350: b55f fa3d 2ddc ff3d 1feb e53d be4b afbe
00000360: e101 073d 6665 91bd 7265 223f 5cf4 2bbf
00000370: 611d 5ebd 58fa 263f ff54 963d 81b0 f6be
00000380: e393 23be e992 3c3f 6936 0dbf 0ab8 15bf
00000390: bf9e 93be bc1c d23e b4d0 91bd db2d 2ebe
000003a0: 9e17 8ebe a063 97bd 2f1c cc3e dfe5 b1be
000003b0: ba41 48be a413 76bf e577 213e 8173 1d3f
000003c0: 1dc1 2dbe 02a1 39bd 9954 0c3e da4e 9cbe
000003d0: d8bd 6dbe 4ddc 57bf 3b51 4f3f 922f 603e
000003e0: ada4 b33d 1e2c 3fbf 3a42 31be 6d0b d33c
000003f0: a374 b73e 576d 283e b2f0 56be bae0 2dbe
-0.10108163 0.3785198 -0.68071336 -0.37407514 0.09847135 -0.035175715 -0.33657137 0.892725
-0.392979 -0.023651255 -0.026256982 -0.34039354 -0.74921316 -1.0274613 0.027465248 0.63472664
0.21106692 -0.1267961 -0.28358355 -0.116632976 0.4440822 0.92390245 -0.7553945 0.33995724
-0.04034403 -1.221428 0.44972414 -0.7292541 -0.18932797 -0.43346035 -0.10210305 0.9212143
0.39629462 -0.33831418 -0.055216864 -0.6536385 -0.16402198 0.7434751 -0.07583249 -0.20751217
0.21802764 0.19989781 0.29530513 -0.7312607 -0.35056844 -0.104478225 0.31527156 0.36814094
-0.45632505 0.34779367 0.6222138 0.4693928 0.06705795 0.023722997 0.89775574 0.14872885
0.35265756 -2.5017421 -0.2957395 -0.3361206 0.30236673 0.40492105 -0.85778785 0.4559349
0.6774715 0.04557028 0.44181123 0.39038503 0.5602329 0.5900834 -1.1678113 -0.0412156
-0.24622189 0.16589382 0.26296392 0.057807572 -0.39460158 -0.9809501 0.0784383 0.56567705
-0.23377037 -0.44758713 0.45839116 -0.8592875 -0.073783286 -0.54872507 -0.003712295 0.36410737
0.2227672 -0.738539 0.34691566 0.08672144 0.31413013 0.532738 -0.43073583 -0.231377
0.16271551 0.18204565 -0.28383198 0.15048571 0.65216184 1.0105262 -0.9565606 -0.58453065
-0.22258803 0.61326915 0.31629542 -0.6690162 -0.008259796 0.23597851 -1.1821872 -0.23136136
0.29737595 -0.11752374 0.53046817 -0.9053866 -0.0070674894 0.31830585 -0.14572081 -0.40490204
-0.10024655 -1.1809543 0.03934701 -0.3534062 -0.43956372 -0.42321917 0.6958458 0.31591105
0.22026162 -0.37984762 0.5293008 -0.050542988 -0.44719964 0.08269329 0.5552331 -0.424111
0.88229936 -0.5688163 -0.0029111763 -0.14418481 0.57667106 0.92369545 0.56882936 -0.089253195
-0.7246345 -0.37383348 0.18748502 -0.14071949 -0.5887902 -1.0788732 -0.07259004 0.38825193
-0.045648944 -0.37462658 0.39299902 -0.6573347 0.17518725 -0.69093263 -0.13797659 0.35065982
-0.09720603 0.7165078 0.1993884 -0.7259562 -0.00856984 0.26100114 -1.2060597 -0.3316392
-0.56923604 -1.1728868 -0.016408347 -0.4467274 0.93198586 -0.4928317 -0.51156396 0.75191325
0.28431898 -0.045656987 0.49639577 -0.5297652 0.054802418 0.3717241 0.18718462 0.08169622
0.88919526 -0.2698187 0.052649982 -0.3605527 -0.29636604 0.49634525 0.04817373 -0.2859187
-0.13169982 0.05440964 -0.59669584 -0.29461744 -0.18244897 0.5875041 -0.7890681 -0.38157108
0.35597467 0.30867794 -0.3816368 -0.43720824 -0.439835 0.46123764 -0.718282 -0.16499776
0.45258227 -0.03022609 0.26937565 -0.48759007 0.12225286 0.12493167 0.112264864 -0.34237474
0.032960776 -0.07099418 0.63436043 -0.6716974 -0.054227237 0.65225744 0.073404305 -0.48181537
-0.15974383 0.7366167 -0.5516115 -0.58483946 -0.2883205 0.41037548 -0.07119885 -0.1700968
-0.27752393 -0.07392049 0.39865252 -0.3474569 -0.19556323 -0.9612372 0.15768392 0.6150437
-0.16968198 -0.045319565 0.13704146 -0.3052891 -0.23216951 -0.8432053 0.8098332 0.21893147
0.08771644 -0.7467669 -0.1731042 0.025762284 0.35831174 0.1644796 -0.20990255 -0.16980258

net.fc1.bias f4 [64]
00000000: cf07 7c3e 0401 c6bd fc53 133d 86c8 e13d
00000010: aa22 b43d 9cf0 a33e e1e1 3a3e 8011 a53e
00000020: 330b 8f3e 96d3 34be bfa6 683e 75a3 8bbe
00000030: 7a66 8ebe 45e5 22bd d712 1f3f c09a 7abd
00000040: 605b 573d 82a8 9a3e 639e a33e dd0b e53e
00000050: 79a8 f4bd 0b31 763d 7d7f dabd a3f1 943e
00000060: b657 b7bd 1b6c 203d 843f c33d 654b a83e
00000070: 0659 cd3e 583e 0abd ffd9 c2bd 5176 90be
00000080: 647d db3e 63f5 f03e 7690 243d b78e 443e
00000090: c1fa 0e3d e6b2 143f 97be abbe da64 c9be
000000a0: 2a4e 0c3f e8ef 003e 497a 003e a76e e03d
000000b0: 55fa cf3d ca72 fabd 4aa2 523e aed7 113f
000000c0: 65b5 04bf 9d50 803d a38d b53e 9e1c 083f
000000d0: 8d37 4ebe 4f14 1a3f 080d 913e 3cf7 2c3e
000000e0: 0395 203f 8f08 e43d f33a 113f de55 cb3e
000000f0: b669 dfbd 0332 bb3d 3f58 06be b053 b43e
0.24612354 -0.096681625 0.035968766 0.11024575 0.08795674 0.32019508 0.18250228 0.32239914
0.27938232 -0.17658839 0.22719859 -0.27273145 -0.27812558 -0.03976943 0.6213812 -0.061182737
0.052577376 0.30206686 0.31956777 0.44735613 -0.11946196 0.060105365 -0.10668848 0.29090604
-0.089522764 0.039165597 0.09533599 0.3287002 0.40106982 -0.033750862 -0.09514236 -0.28215268
0.42869103 0.47062215 0.04017683 0.19195066 0.034907106 0.5808548 -0.33543846 -0.39334756
0.5480677 0.12591517 0.12546648 0.10958605 0.10155169 -0.122289255 0.20569721 0.56969726
-0.51839286 0.06265376 0.35459623 0.53168666 -0.20138378 0.6018724 0.28330255 0.16891187
0.62727374 0.11134445 0.56730574 0.3971395 -0.10908835 0.09140398 -0.131196 0.35220098

net.fc2.weight f4 [64, 64]
00000000: 53c6 4a3e 38c2 66be f273 923e 4f5b 6f3e
00000010: 2866 163e ef7f d7bd 3a2e 30bf 8f75 ef3e
00000020: 8201 8f3e 0258 16be 8137 ed3c bf55 df3e
00000030: f130 993e b8d9 8d3e 41aa ea3c f4d8 13bf
00000040: bd19 79be 6bb6 383c 2059 9bbd 5f73 0d3e
00000050: c947 fa3d 6932 1b3f 3386 9f3e 2f57 963e
00000060: 5dfe 1e3e dc16 f93e 7dd2 2abd 3a94 7e3e
00000070: 21c1 a1be 280d f8bb 0e14 44be 8753 88bd
00000080: e30e f7bd bf4b 9f3e 283e d7bc 7785 c03e
00000090: 4366 003f 11e9 333e 309d 353d 9014 253a
000000a0: 4d01 5abd a3ba ed3e dff1 0a3d d390 9abe
000000b0: 7638 da3e 0f3e 843e 0ea1 d8bd 6e18 43bd
000000c0: 68c5 5d3d e555 d73e f9a8 ab3d b8c1 dfbd
000000d0: e6e4 03bf 09fb 3e3e 744b 20bd 608d 333f
000000e0: 03e2 f23e 19b2 2fbe f307 323e 5783 813e
000000f0: a2ca 613e 1e03 94be e77f 2dbe 2fd2 ee3e
00000100: 065f b2be f82b 18bf c967 d83c 8d41 753d
00000110: d53f 553e 98cd 873e dd8a 26bf d611 07be
00000120: 1636 5cbf 5c99 1dbf c826 db3d e5ab f8be
00000130: 50a3 14bf 6723 243e b89d c63d 64e9 c2be
00000140: 489b b53e 324f fc3e 16c5 18bf e244 323e
00000150: 1b2a 963e 23c5 a93e 6f9c b63e 009d 8c3e
00000160: b533 fabe 6791 c53d 7d21 883e 8e76 c03e
00000170: 1f05 b3be 8744 95bc fb6d 07bf 4c27 0cbe
00000180: 9eaf 423e 6baa 38be c757 6a3e b723 13bf
00000190: f7a1 26bf 8df5 b43e ca4f af3d d9dc d43e
000001a0: 96d3 093f 1a80 41be 4f12 bb3d ec18 09bf
000001b0: 62a9 1cbf 203d a3be deb8 09bf dd80 a23d
000001c0: be15 dcbe 04cf b93e bd3a 8c3e 47f3 21bf
000001d0: 3d4d 24bf e91e 043f 3a67 ce3e d473 7bbf
000001e0: c4e8 0c3f e541 f1be 906c 6f3e 145c 9f3e
000001f0: 05eb 16bf a411 e03e 76ea 333e 9819 033f
00000200: 5903 5dbf d155 97bd 43bc 0dbf 72eb 963e
00000210: e362 ce3c 30f4 223e 8de6 d3be a597 b8be
00000220: 60eb 42bf d074 01be c9b7 613e 9862 ffbc
00000230: 7523 0cbf be43 95bf 8a65 013e 01b5 023e
00000240: e399 8a3e 0b4d 46be eebf b4bd 55ca 303d
00000250: 38a8 97bf 6897 c6bd 192e c53e eb7f 123c
00000260: a9f2 66bf bca9 88bf d834 d13d b40c 393e
00000270: ecd7 abbf ef62 853d e94c d4bd ecea d93d
00000280: c0bc 7cbe b548 31bf 46f8 58bf 8173 10bf
00000290: 29c4 97bd ad85 733e ccf7 ca3d c75d 3bbe
000002a0: 8a50 85be fcc1 14bd 5fe5 623e 07d1 87bf
000002b0: 5ecd 78bf 759c 02bf 3a69 a6bd a1a5 03bc
000002c0: 2d90 263e b913 f4bd 837a 40bd 8f79 64bf
000002d0: 7269 203d 0ea9 483e fd4e 9abc 8cd3 05bf
000002e0: 0ffb b13e ed92 f4bd fe5b 08bd a0e5 b23e
000002f0: 19f4 dbbe fe1f fb3b efc2 b7bd b50b e23e
00000300: 1e99 1b3e 6964 0d3f 328a c43e 4161 253d
00000310: b8d6 f83d e027 5c3e 0053 0b3f ad31 853e
00000320: 6710 113f 4db7 c93e b786 a03e c988 693c
00000330: 4edd 203f 0b93 83be 460f c23d 5a66 9c3e
00000340: eba6 23bd 0a2a ba3d 18b4 ef3e 494d 173d
00000350: 0875 bfbe e29d debe e206 91bc 7867 723d
00000360: d5a7 cb3e 0962 26bc 8fd2 4cbd 0f67 cdbd
00000370: 2f34 f23d b137 503e 18e3 143f 0bb7 f03d
00000380: 3bc0 f13d a34d 6d3d 46e8 04be 96cf dc3e
00000390: ced5 58bd 139d 823e 0690 fe3d efe1 28bf
000003a0: a69f 1f3e bb8a 853e 7373 1b3e b808 5e3e
000003b0: 6ffd ab3e 6253 3a3f 6afe ed3e 0a04 443e
000003c0: 626b 7b3e 9916 91bd 441d 56bd 9cb8 b73e
000003d0: 6d8e 433f 30ce 74bd 92e6 ef3d af23 213f
000003e0: 1f0e d6bd 2840 9d3e a43a b23d 6bb6 f93d
000003f0: 6dda 473f 7691 383d 158a 9dbe aeaf 343d
0.19802217 -0.22535026 0.28604084 0.23374675 0.14687407 -0.10522448 -0.68820536 0.46769378
0.27930838 -0.1468201 0.02895713 0.43620107 0.29920152 0.2770517 0.028645637 -0.5775292
-0.24326225 0.011273961 -0.075853586 0.13813542 0.12220723 0.60623795 0.31157073 0.2936339
0.1552672 0.48650253 -0.041704644 0.24861231 -0.31592658 -0.0075699277 -0.19148275 -0.066565566
-0.12063386 0.31112477 -0.026274756 0.37601826 0.5015604 0.17569377 0.04433936 0.00062973145
-0.053223897 0.46431455 0.033922072 -0.30188617 0.426212 0.25828597 -0.10577594 -0.04763072
0.05414334 0.4205772 0.08381838 -0.10925621 -0.51521146 0.1865045 -0.039134458 0.70137596
0.47438058 -0.17157783 0.17385845 0.25295517 0.22049955 -0.28908628 -0.16943322 0.46644732
-0.34838122 -0.5944209 0.026416676 0.059876967 0.20825131 0.26524043 -0.6505564 -0.13190398
-0.8602003 -0.6156213 0.10700756 -0.48568645 -0.58061695 0.1602913 0.09698051 -0.38068688
0.35470033 0.4927917 -0.5967573 0.17409089 0.29329 0.33158216 0.35666224 0.27463531
-0.48867574 0.09646874 0.2658805 0.3759045 -0.34964845 -0.018221153 -0.5290219 -0.13686866
0.19012305 -0.1803376 0.22885047 -0.5747637 -0.6509089 0.3534359 0.085601404 0.41574743
0.5383848 -0.18896523 0.091343515 -0.5355365 -0.6119596 -0.31882572 -0.5379771 0.07934735
-0.42985338 0.36290753 0.27388564 -0.63261837 -0.64180356 0.51609665 0.4031313 -0.98223615
0.5504267 -0.47120586 0.23381257 0.31124938 -0.5895236 0.4376346 0.17569908 0.5121093
-0.86333233 -0.07389415 -0.5536539 0.29476506 0.025193637 0.15913463 -0.41386834 -0.36053196
-0.76140404 -0.12642217 0.22042765 -0.031174943 -0.54741603 -1.1661298 0.1263639 0.1276436
0.2707053 -0.19365327 -0.0882567 0.04316171 -1.1848211 -0.09696847 0.38511732 0.008941631
-0.9021402 -1.0676799 0.10215157 0.18071252 -1.3425269 0.06513011 -0.10366232 0.10640511
-0.24681377 -0.6925157 -0.84753835 -0.56426245 -0.074104615 0.23781462 0.09910545 -0.18297492
-0.2603801 -0.03631781 0.2215781 -1.0610665 -0.97188365 -0.51019984 -0.08125539 -0.0080350945
0.16265936 -0.11917824 -0.046991836 -0.89247984 0.03916306 0.19595739 -0.018836493 -0.5227592
0.34761855 -0.11942086 -0.033290856 0.34940815 -0.4295967 0.007663726 -0.089727275 0.44149557
0.15195128 0.5523134 0.38386685 0.04037595 0.12150329 0.21499586 0.5442352 0.26014462
0.56665653 0.3939766 0.3135278 0.0142538035 0.62837684 -0.25698122 0.094755694 0.30546838
-0.039954107 0.090900496 0.46817088 0.03693894 -0.37393975 -0.4347983 -0.017703477 0.059180707
0.39776483 -0.010155209 -0.05000549 -0.100294225 0.118263595 0.20333745 0.5815902 0.11753663
0.11804243 0.05793537 -0.1297923 0.43127126 -0.052938275 0.25510463 0.12429814 -0.6596975
0.15588245 0.26082405 0.15180759 0.21683013 0.33591792 0.7278348 0.46483165 0.19142166
0.24552682 -0.07084388 -0.052274004 0.35883033 0.763892 -0.05976695 0.117139 0.62945074
-0.10451912 0.3071301 0.08702591 0.121929966 0.78067666 0.045060597 -0.3076941 0.044112854

net.fc2.bias f4 [64]
00000000: 4498 f2bc 77a6 a63d 4a21 adbe 1d4c 0e3e
00000010: 9f2e 0a3d 8224 ac3c e619 21bd e535 88bc
00000020: 1800 ee3c f0c7 aebd 430d 9dbc 5cf3 eabd
00000030: befc 813d 82f7 8bbd b8ff 923c 5249 683e
00000040: 0db5 e23e b098 1d3e 98ad 433e e336 e13c
00000050: e752 35be 7d7c d33e e423 7abb 88b4 e6bd
00000060: 1bce 43bc f09b 0abe 8fdc c2bd 94c0 443a
00000070: b21c b13d b7ae fdbd 4b93 cd3e 93a8 fc3e
00000080: 1f6a cfbc adf9 843d 7f2d bcbd 00f4 08be
00000090: f35b 8f3e 4674 c23c 4c4f 8ebe 9564 5fbd
000000a0: 24fd 363e ff67 503e a123 4f3e 822f 86be
000000b0: 90a6 debd acb3 d93e 3750 d03e 2567 9d3e
000000c0: ac95 44bd 807b fabd cd20 2f3e 4709 1cbe
000000d0: f3b6 41bd b8ea a7be 3da6 70bd 36a4 15be
000000e0: ddcb 803e 1679 db3d 92c4 683e 22b4 5c3c
000000f0: 349c 15be 91e5 acbc 603f fabc 329a 833d
-0.029613622 0.081372194 -0.3381446 0.13896222 0.033735868 0.021013502 -0.03933134 -0.016627261
0.02905278 -0.08534229 -0.019171363 -0.11472198 0.06347035 -0.06834318 0.017944202 0.2268422
0.44278756 0.15390277 0.1910919 0.027491992 -0.17707406 0.41305915 -0.0038168365 -0.11264902
-0.011950995 -0.13536048 -0.095147245 0.0007505503 0.08648051 -0.1238684 0.40151438 0.49347362
-0.025319157 0.064929344 -0.09188365 -0.13374329 0.2799984 0.023737084 -0.27794874 -0.054539282
0.17870003 0.20352171 0.20228435 -0.2620812 -0.10871613 0.4251989 0.406862 0.30742756
-0.0479943 -0.12230587 0.17102356 -0.15237914 -0.047293615 -0.32796264 -0.058752287 -0.14613423
0.25155535 0.10716455 0.22731236 0.013470681 -0.14610368 -0.02110556 -0.030547798 0.06425895

net.out.weight f4 [4, 64]
00000000: 8d6f a7be e10f 863f 483a f43d e522 e0be
00000010: 5260 febe 4bb5 27bf 8167 883d 32a4 9f3d
00000020: b803 c7bd 4c0a 1d3d 29e2 cfbe 1636 93bd
00000030: 0151 8abe 98cd 1ebd e8dc abbe 329c b53c
00000040: 6fd8 5a3f efb9 953f 00ac e839 c3fd 0bbf
00000050: c5e9 0ebf 75bb c13e 6abc b73e e02d 3bbc
00000060: 50ce 05bf ba44 ce3d fd73 3a3e a01f 5bbf
00000070: f5df 09bf 7b58 1dbf 889a a03f 91a4 4c3f
00000080: dc35 dcbe 3c23 98be 3379 fdbe dec6 a4bd
00000090: 457e 5f3f 0e89 f0be 8478 67be 9bb3 0cbf
000000a0: 7442 87bd b6a9 f93d 6db1 8f3f fd0d 1fbf
000000b0: 1a76 2a3e 634a 0c3e 29ac 993f 5332 06bf
000000c0: 8428 34bf ef07 843b db3d 8bbd 0a4b c5bd
000000d0: 09d0 8cbc 441e d9be 44e5 e7be caf3 b73c
000000e0: 12b6 d13d 3b18 533d c121 193e 274c 17bf
000000f0: 83b9 bdbd 7599 7d3d ad1e 7a3d d610 11bf
00000100: dd3e 9f3e f96a 303f 38fb fa3d fa5c 87be
00000110: aad2 d5be 4279 02bf d144 c5bb 8fef ebbc
00000120: 2afc e33d 3ed9 a3bd 9560 debe fc9b 35bd
00000130: dea0 54be 6b62 d0bc f41f 6c3e 9164 b13d
00000140: 4386 0c3f fc46 e93e 0708 1a3f 15f7 b1be
00000150: c6ed 9ebd 1771 4f3f 0a81 543e 4012 7abd
00000160: adba 9dbe 687c 8f3d 8c11 163e 3b7c dcbe
00000170: bcd7 dbbe 1fdc d7be c4c3 153f 5cdd 803e
00000180: 8878 0cbf e271 bebc f4a5 acbe cc87 ff3d
00000190: 38ea 3b3f b4a3 dfbe 12a5 093f 99ef ccbe
000001a0: 9f47 d3be 0781 cfbe cd69 1c3f c44d 013f
000001b0: 97f5 23be 3ab9 17bf 754d 333f dc1b 35bf
000001c0: 8f1f b9be c70f 38bd 8e00 7abe 5296 e9bd
000001d0: 6adb 8e3d ac34 0540 03da 79be d699 cdbb
000001e0: a263 903e 4552 7fbd 0d67 433f 55d3 d4be
000001f0: db14 69bd b391 243f d897 f93d 1064 b3be
00000200: 36c6 85be a9ec 823e e35e 20bf b818 48bd
00000210: bf3b e5bc f1bb 183e 4577 c43a 6cc7 a63d
00000220: 4c08 af3d aadd 983d 0eb6 233f c08a 0a3d
00000230: ef71 333f cfdb 8ebd 5239 43be 618e b5be
00000240: 3809 1f3f ed00 bb3e ef88 6e3c 95f7 e8be
00000250: 48d1 063f 0497 ac3f 548e c2be 8880 9a3c
00000260: 81df c7be 76fd b53d ff73 943c 9fdc bebd
00000270: c804 e2be 2e6d 1fbe 5b38 9c3d 7c27 9b3f
00000280: cf3f 143f 63ff dabe 3dbe b7be 9032 4fbd
00000290: 8243 fc3e 9372 c3be f53f 723f 36e4 f33e
000002a0: c2d1 08bf 0861 e1be c5fc 933e 169e c63e
000002b0: e7bf ffbd 86fd a5be d8fc 01bd c9ba d2be
000002c0: b5ca b1be 7fff abbd 53d6 d5be 855b 04bf
000002d0: 7d2a 8dbf 0e85 33be 031a 6ebe 8c93 3f3d
000002e0: e8b8 2d3f 1f9e ccbe 1901 b03e 1179 54be
000002f0: 37bd 1f3d 0f89 443f 86e5 9f3c 64ca d9be
00000300: d147 963e 001a eb3e 35c3 bcbb f044 f9be
00000310: f35b a9be 35fd 9e3e 8d27 643d a229 96bc
00000320: 5047 933c f0bc 33bd f81d f23d 8012 23bb
00000330: a744 2bbe 1cb0 b1bd 174d bf3e 7179 823f
00000340: f174 983e f991 123f 244a db3e c408 c8be
00000350: c02f 9e3e b365 963e 61c7 eebe c548 0ebc
00000360: 82a8 cebe 5012 be3d 54d2 2bba d1d1 633e
00000370: 5010 d4be 2d3c aabe 8ee5 0f3f dd00 c63d
00000380: b69d 143d 648b 533f 51d6 cabe a461 9bbd
00000390: 5f02 f13e 57e0 9bbe a7c8 8c3f 19c3 6a3e
000003a0: 2b7f a8be 6818 15bf 149f ce3e 51fa d8bd
000003b0: ba81 b33e 558e 4fbf 0ee6 1540 186c 16bf
000003c0: 7647 7dbe d186 c63d 9eab 1dbf a9c2 eabe
000003d0: cc9c 4e3f f315 463f db43 f9be 40c0 763c
000003e0: 7f32 293f c11b 8abe 5ebc c23e f0ea cebe
000003f0: 5855 123d 53e3 3b3e e0e7 7b3d 7e94 1ebe
-0.32702294 1.0473596 0.11925179 -0.43776622 -0.49682862 -0.65511006 0.06660367 0.0779499
-0.09717506 0.038339898 -0.40602234 -0.071880504 -0.27014926 -0.03877029 -0.33566976 0.022169206
0.854865 1.1697367 0.00044378638 -0.54684085 -0.55825454 0.3783833 0.35885936 -0.011424512
-0.5226793 0.10071702 0.18208309 -0.8559513 -0.53857356 -0.61463135 1.2547159 0.7993861
-0.4300984 -0.29714382 -0.4950653 -0.080457434 0.87302047 -0.46979564 -0.22604567 -0.54961556
-0.06604472 0.12190573 1.1226021 -0.6213072 0.16646615 0.13700251 1.2005664 -0.5242054
-0.7037432 0.004029266 -0.06798907 -0.09633453 -0.017189043 -0.42405903 -0.45292103 0.022455115
0.10239805 0.05153678 0.14954282 -0.59100574 -0.09263899 0.061913926 0.06106441 -0.56666315
0.31102648 0.6891323 0.122549474 -0.26438123 -0.41762286 -0.50966275 -0.0060201664 -0.028800754
0.11132081 -0.0800042 -0.4343306 -0.04433821 -0.20764491 -0.025437554 0.23059064 0.0866176
0.5489237 0.4556197 0.601685 -0.3475882 -0.077601954 0.81031936 0.2075235 -0.06105256
-0.30806485 0.070061505 0.14655131 -0.4306353 -0.4293803 -0.42160127 0.5850184 0.25168884
-0.54871416 -0.023247663 -0.33720362 0.12477073 0.73404264 -0.43679583 0.537675 -0.40026549
-0.4126558 -0.40528128 0.6109894 0.50509286 -0.16011654 -0.5926701 0.70040065 -0.70745635
-0.3615689 -0.04493692 -0.24414274 -0.114056244 0.06975444 2.0813398 -0.24399571 -0.006274442
0.28201014 -0.062334318 0.7632912 -0.41567484 -0.056904655 0.6428482 0.12187165 -0.3503728
-0.26127785 0.25571182 -0.62644786 -0.0488517 -0.02798259 0.14915444 0.0014989158 0.081435055
0.085465044 0.07464154 0.6394967 0.03382373 0.70095724 -0.06975519 -0.19064835 -0.3546019
0.6212344 0.36524144 0.014559015 -0.4550139 0.5266309 1.3483586 -0.37999213 0.018860117
-0.39037707 0.088862345 0.018121717 -0.09319424 -0.44144273 -0.15568992 0.076279365 1.2121425
0.57909864 -0.4277297 -0.35887328 -0.05058533 0.49270254 -0.3817335 0.9462884 0.4763505
-0.53445065 -0.4401934 0.28903785 0.38792485 -0.12487774 -0.32419986 -0.03173527 -0.4115813
-0.34724966 -0.083983414 -0.4176508 -0.5170215 -1.1028591 -0.17531225 -0.2325211 0.04677157
0.6786027 -0.39964387 0.34375837 -0.20749308 0.03899881 0.76771635 0.019518625 -0.42537224
0.29351667 0.45918274 -0.005760575 -0.48685408 -0.33077964 0.31052557 0.05570178 -0.018330399
0.01797834 -0.043881357 0.11822122 -0.0024882853 -0.16725408 -0.08676168 0.37363502 1.0193311
0.2977672 0.57253987 0.42830002 -0.39069188 0.30895805 0.29374465 -0.4663649 -0.008684342
-0.40362936 0.092808366 -0.00065544737 0.22248007 -0.41418695 -0.33249035 0.5620965 0.096681334
0.036283217 0.8263457 -0.39616635 -0.07586983 0.47072122 -0.30444595 1.0998734 0.22925986
-0.3290952 -0.58240366 0.40355742 -0.10594619 0.3505991 -0.81076556 2.3421664 -0.5875869
-0.24734291 0.09693683 -0.6158999 -0.4585164 0.80708003 0.7737724 -0.48684582 0.015060484
0.66092676 -0.269743 0.38034338 -0.40413618 0.03572592 0.18348436 0.06150043 -0.15486333

net.out.bias f4 [4]
00000000: e3ef 333e 2386 c6bd 949e cd3d 4b55 11bd
0.17571978 -0.09693553 0.10040012 -0.035481732

net.fc1.weight f4 [64, 8]
00000000: 3466 d9bd cc4e b33e 7411 2dbf fcba b9be
00000010: 88d3 bc3d 9caf a0bc 3857 a5be e8fb 553f
00000020: 1dd6 d6be b77c ccbc 109d 40bd 1b28 a2be
00000030: af4e 42bf 43cd 82bf 985e fb3c fe90 113f
00000040: d1b7 5a3e d884 0dbe bfd8 95be 3619 9ebd
00000050: 78f8 e73e ade2 6a3f 3f8c 3ebf 7d06 a23e
00000060: b630 61bd d1f0 94bf 58ed e23e 5329 3abf
00000070: 7228 6bbe f2c7 e9be 1e1b d2bd 8dd5 673f
00000080: e89e ed3e 2f00 afbe ee0c 64bd 2f74 27bf
00000090: 87c6 f8bd f7e7 373f a376 26bd 2e4f 1fbe
000000a0: 924d 5c3e 1533 f93d 9506 903e 8a7a 2fbf
000000b0: da2e aebe cb82 10be 110b a23e 6627 e03e
000000c0: 4d75 d3be c427 af3e af14 1f3f ba31 f33e
000000d0: 3ed5 24bc ed5d 2dbd 899e 5c3f 2725 363e
000000e0: ac6f 9b3e 6637 0dc0 2ed1 c6be ec80 8abe
000000f0: ff06 b83e c6e0 ed3e 07f6 6abf 625f ca3e
00000100: 47ec 243f 30bd 5e3d e685 db3e c70b ca3e
00000110: a42d 0b3f 486c 1b3f 678e 93bf d3d5 7abd
00000120: 5d0d 82be f296 443e eced 9d3e d810 f33d
00000130: 388e d4be 9e1f 78bf f81f ce3d 2d72 f53e
00000140: ea87 8ebe f799 dcbe a862 e93e f5b1 4fbf
00000150: a0a3 c0bd 3fe3 13bf 9da5 153c 320c bb3e
00000160: 5830 533e d628 31bf db1b 963e ddac 5d3d
00000170: 6c27 b13e a88a 093f 7dc5 e5be 749c 56be
00000180: f9c5 513e 29f4 253e 458e 9dbe 472d 203e
00000190: 62e2 2c3f 897f 773f 4374 6fbf 3909 09bf
000001a0: 96f4 62be bc94 1a3f a33a 993e a966 2dbf
000001b0: 9692 84bc a3be 3a3e 6804 8dbf b6c6 33be
000001c0: 61f7 8e3e 16ba 00be 97bd 093f 627d 53bf
000001d0: 2a5d b4bc 1a4f 943e 9ab0 c1bd 779f b9be
000001e0: b465 d0bd 6a7f 8dbf 9b7d d43c aba6 96be
000001f0: 861f f3be 612e d3be 5985 2b3f 7fbf 823e
00000200: 5a30 2a3e 2818 cbbe 0403 d23e 13b4 41bd
00000210: 7b7a d6be f1fd 8d3d 0e9d 053f 8e6c abbe
00000220: fbad 623f 9d68 18bf f44a 1c3d 6852 11be
00000230: 6b50 133f 8b0c 6b3f 97ad 113f 93bd 5cbd
00000240: ffb8 39bf 6a55 c9be da7f 3f3e 5ff0 0abe
00000250: b7df 17bf 3d25 89bf 0844 93bd 5ac2 ad3e
00000260: 898d 30bd e353 e1be 59be b83e f3d4 29bf
00000270: a782 253e 171b 36bf ddde febd 1b02 c23e
00000280: 46a2 ccbd e8d7 353f 5da4 383e e7e2 3cbf
00000290: f289 c2bc 3911 4d3e f5e7 8fbf d299 8bbe
000002a0: b10f 0fbf cd62 88bf 3892 73bd 1caa ebbe
000002b0: 58ef 723f 39f6 fabe 277f 0bbf 8ffc 3e3f
000002c0: 234b 9b3e dd01 9bbd 3621 f63e f8d4 09bf
000002d0: c957 e73d 3c82 b93e 88a6 4b3e 84c8 153e
000002e0: 45a4 603f cfb1 95be 9e01 873d 771f c6be
000002f0: 71b1 70be 0981 f33e 0a47 833d 6153 37be
00000300: dc2c f0bd 0d43 203d fd28 13bf 53e0 90be
00000310: ad3a 10be 8f3b 123f 5d91 46bf 4e34 eabe
00000320: 685f a83e d606 953e 1ff1 c1be 3be7 e4be
00000330: b694 cabe bc1a f43e 4c5a 2ebf e437 b0bd
00000340: a686 f13e 2de2 d53b 59f5 973e a5fe e2be
00000350: 4284 ee3d 76db f13d 8185 043e 6854 9ebe
00000360: fda8 f53c a14d 4ebb 089e 1b3f 9104 27bf
00000370: 8825 05bd 2a4e 223f fb6e e23d d81d ebbe
00000380: 4d8e 0dbe 8e94 423f 63cc 04bf 125f 11bf
00000390: 87f1 85be e918 da3e f880 f9bc 5589 2cbe
000003a0: e0a0 a2be 993a b9bd 3157 bf3e 5291 aebe
000003b0: 7335 3fbe c329 76bf 130c 1d3e f395 153f
000003c0: 6ee2 35be 99d5 7dbc 692a 073e fa1f 92be
000003d0: c408 6cbe 43d8 57bf 10c6 473f a1b2 2f3e
000003e0: 9bec aa3d 3977 28bf 3132 30be 4d3f b53c
000003f0: c694 b93e d15d 333e b2f0 56be 508e 20be
-0.10615197 0.35021055 -0.67604756 -0.3627547 0.09220034 -0.019614987 -0.32293105 0.83587503
-0.4196023 -0.024961812 -0.047024786 -0.31671223 -0.7590131 -1.0218891 0.030684754 0.56861866
0.21359183 -0.13820207 -0.29266927 -0.07719652 0.45306754 0.9175213 -0.7443275 0.31645575
-0.054978095 -1.1635991 0.44321704 -0.72719306 -0.22964647 -0.4566036 -0.102590784 0.9056023
0.46410298 -0.34179828 -0.055676393 -0.6541166 -0.12147241 0.71838325 -0.040640485 -0.15557548
0.21513966 0.12167946 0.28130022 -0.68546355 -0.3402012 -0.14112394 0.31649068 0.4378006
-0.4130043 0.34210026 0.62140936 0.47498876 -0.0100606065 -0.042325903 0.86179405 0.1778761
0.30358636 -2.2065063 -0.38831466 -0.27051485 0.35942838 0.4646055 -0.9178166 0.39525896
0.6442303 0.054379642 0.42875594 0.3946211 0.5436652 0.607121 -1.1527833 -0.061239075
-0.2540082 0.19198206 0.30845582 0.11868447 -0.41514754 -0.96923244 0.10064691 0.47938672
-0.2783807 -0.43086216 0.4558308 -0.81130916 -0.09406209 -0.57768625 0.009133724 0.36532742
0.2062391 -0.69202936 0.29318127 0.054119933 0.3460039 0.537272 -0.44877234 -0.2095812
0.20485677 0.16206421 -0.30772606 0.15642272 0.6753293 0.9667898 -0.93536776 -0.535297
-0.22163615 0.603832 0.2992755 -0.6773477 -0.016183179 0.18236785 -1.101697 -0.17556271
0.2792311 -0.12570986 0.53804916 -0.82613194 -0.02201708 0.289666 -0.09457512 -0.36254475
-0.10175648 -1.1054509 0.0259388 -0.29424033 -0.47484988 -0.41246322 0.6700035 0.25536725
0.16620007 -0.39666867 0.41017926 -0.047290873 -0.4189032 0.06933201 0.5219277 -0.33481258
0.88546723 -0.5953463 0.03815742 -0.14191592 0.57544583 0.91816014 0.569055 -0.05389173
-0.72547907 -0.39322978 0.18701115 -0.13568257 -0.59325737 -1.0714489 -0.0719071 0.3393734
-0.04310373 -0.44009313 0.36082724 -0.6634056 0.16163121 -0.71135086 -0.124448515 0.3789223
-0.09991889 0.7103257 0.1803145 -0.73783726 -0.023747418 0.20026101 -1.1242663 -0.27265793
-0.5588332 -1.0655152 -0.059465617 -0.4602822 0.9489646 -0.49015978 -0.54490894 0.74604124
0.30330762 -0.07568715 0.48072213 -0.5384059 0.112960406 0.36232173 0.19887745 0.14627272
0.87750655 -0.2923722 0.06592105 -0.3869588 -0.23505189 0.47559384 0.06410034 -0.179029
-0.11727306 0.039126445 -0.5748442 -0.28296146 -0.14084883 0.5712213 -0.77565557 -0.4574303
0.3288529 0.29106778 -0.37879273 -0.44707665 -0.39566582 0.47676647 -0.6810653 -0.0860441
0.4717304 0.0065272064 0.29679373 -0.44334903 0.1164632 0.11809437 0.12941553 -0.30923772
0.029987806 -0.0031479376 0.6078801 -0.6524134 -0.032506496 0.6340052 0.11056324 -0.45921206
-0.13823815 0.76007926 -0.5187437 -0.5678569 -0.26160833 0.4259713 -0.030457005 -0.16849263
-0.31763363 -0.0904438 0.3737121 -0.34095246 -0.18672733 -0.96157473 0.15336637 0.5843193
-0.17762157 -0.01549282 0.13199772 -0.2854002 -0.23050219 -0.84314364 0.78036594 0.17157985
0.0834591 -0.6580692 -0.17206647 0.02212491 0.36246318 0.17516257 -0.20990255 -0.15679288

net.fc1.bias f4 [64]
00000000: b6d1 663e 25c0 c5bd f81a 6d3c c1ae 083e
00000010: 66fb cb3d 8516 9a3e db20 393e e427 8f3e
00000020: c7e3 913e 6292 4abe 74e4 703e 8b0c 7bbe
00000030: 0ae8 8abe 0406 a8bc 8aac 173f a1bd a7bd
00000040: a78c c23c 615e 933e e3be a63e d2a6 dd3e
00000050: fd05 c9bd 340f 963d 0c06 cbbd 30d8 9a3e
00000060: bd2e a6bd 99af 323d 8b2f a23d 59b6 b23e
00000070: 7fa1 c33e c222 a5bc 88ed b9bd 587b 8bbe
00000080: 034c d03e 142f f03e 7a8d 603d 4b4d 523e
00000090: 847c 173d 4d3f 143f 97be abbe c1ba c9be
000000a0: 7d32 0a3f a747 ac3d 14df e93d 8207 093e
000000b0: 5664 d63d 88c7 debd 5e07 523e f64f 093f
000000c0: 1de4 f8be 4e10 1d3d 7cbc a93e 7800 0a3f
000000d0: 0b66 6ebe df26 1d3f 4b49 853e 36af 2c3e
000000e0: 9da3 1c3f 7bac 063e 9c5f 0f3f 9e87 c63e
000000f0: 4c07 e4bd c433 963d c29b fcbd 17b8 bc3e
0.22540936 -0.09655789 0.014471762 0.13347913 0.0996006 0.30095306 0.1807894 0.27960122
0.28494093 -0.19782403 0.23524648 -0.24516504 -0.27130157 -0.020510681 0.5924765 -0.08190466
0.023748709 0.28782943 0.3256751 0.43291336 -0.09815595 0.073271185 -0.09913263 0.30243063
-0.08114383 0.043624494 0.07919224 0.34904745 0.3820915 -0.020158175 -0.090785086 -0.2724254
0.40682992 0.46910918 0.054822423 0.20537297 0.03698398 0.5790909 -0.33543846 -0.39400294
0.5398329 0.08412104 0.11419502 0.1338177 0.10468356 -0.10877901 0.20510623 0.53637636
-0.48611537 0.038345627 0.33151615 0.53906965 -0.23281114 0.6138744 0.2603248 0.16863713
0.61187154 0.13151734 0.56005263 0.38775343 -0.11134204 0.07334092 -0.12334396 0.368592

net.fc2.weight f4 [64, 64]
00000000: f226 4d3e f620 5bbe 4e3c 933e 51fd 893e
00000010: 9309 1b3e 7b57 c5bd fad5 21bf 3b98 033f
00000020: c861 a63e df31 1bbe 376f 293d 79d4 de3e
00000030: 724b 9d3e 5728 663e f82d fb3c 0b81 02bf
00000040: c3cd 84be 7816 5c3d 7e0d 85bd 4b08 193e
00000050: 921c 5a3d 36cd 203f b189 a73e e13f 943e
00000060: e2b3 063e c742 d83e 9425 3abd 5e5f 7e3e
00000070: db76 b3be f4a6 073c 0d2a 30be 5984 2ebd
00000080: 33e4 0fbe ac94 a03e 5272 77bd 89af c63e
00000090: 958a 013f 04bc 513e 309d 353d 5f06 f13b
000000a0: b31b fabc 9f91 003f 096e 3f3d 7107 acbe
000000b0: 7e7e d13e 2d3b 883e 4ca4 c8bd 1d45 0fbd
000000c0: 3e4b 283c 4b46 da3e 7553 e93d 169c 03be
000000d0: afdb e6be 93fd 463e 9b52 9cbd cd58 363f
000000e0: d5d8 023f 5877 4cbe df44 483e d919 913e
000000f0: f5f0 673e 76a4 82be e067 0ebe b014 ef3e
00000100: c22a 97be fefc 0fbf 494e 1abb b5da e83d
00000110: c101 4d3e 5dd3 8b3e 4483 29bf 4d68 89bd
00000120: ac0e 4bbf f529 19bf 84a3 0d3e e1e3 ddbe
00000130: e0f7 0cbf 06ef dd3d 9b94 be3d 25b8 a2be
00000140: 293b 923e 65c2 fe3e 7d26 10bf 6fe5 543e
00000150: 3d30 693e 775d c03e 5437 bd3e 2aa2 6b3e
00000160: fd0a 00bf cb4c f2bb 10d5 823e 4af3 b93e
00000170: bf8e bebe b28e c73c b08f 01bf e5eb 07be
00000180: dd6a 1e3e a940 18be 5f5f 543e 1a64 0cbf
00000190: 19b0 1cbf e928 b83e ca4f af3d ac6f 863e
000001a0: 5e27 fd3e 877f 11be 6167 a33d d2eb 23bf
000001b0: 8c9a 35bf ddd6 a2be fc93 04bf b698 d13d
000001c0: d729 f0be 89e9 cb3e b69c 9b3e 8609 19bf
000001d0: 18f2 0fbf 44dc fe3e 811f b13e cec1 70bf
000001e0: 389c 153f a42a f3be 7dd4 803e 62c5 a63e
000001f0: 5144 12bf ab6b e83e 75bf 073e 05c5 f73e
00000200: 02c8 5abf faeb c2bd 43bc 0dbf 5963 893e
00000210: 563f 2d3c b162 0c3e e9af d6be a597 b8be
00000220: 60eb 42bf a837 13be c62b 4b3e 9862 ffbc
00000230: 7523 0cbf 812a 92bf 99b5 ca3d b2fc ca3d
00000240: 78cf 713e 2756 1bbe 40d9 debd 3717 ce3c
00000250: 2113 95bf 9b7a a1bd e011 b83e f015 a2bc
00000260: a9f2 66bf 8a20 8cbf f7fa a53d dbfa 223e
00000270: f75f abbf 2d7c 393d bc2b fabd ecea d93d
00000280: b0dc 88be b548 31bf 58dc 54bf 8173 10bf
00000290: 29c4 97bd 3bdc 4f3e ccf7 ca3d 9fca 4fbe
000002a0: 6398 5fbe fcc1 14bd 5e1c 4b3e 2707 86bf
000002b0: 00d3 78bf 759c 02bf 98db cdbd deb2 b7bc
000002c0: 08bf 143e f846 cbbd 7064 5fbd 7b72 5ebf
000002d0: 87eb 5f3c 4b78 2c3e 270e cebc 8cd3 05bf
000002e0: 0d99 a53e 1af9 0cbe 8296 69bd 11ab a03e
000002f0: 19f4 dbbe d233 173b c050 9cbd 77d7 cc3e
00000300: fe4c f73d 50c9 0d3f 8879 c43e 8522 a33c
00000310: 1660 eb3d 624e 4f3e 9fe0 063f d480 5a3e
00000320: 01e4 153f 56ca cf3e 74c5 9b3e f267 753c
00000330: d900 173f 41b1 63be 58b4 a93d 9f61 973e
00000340: 6462 123c 844a 9a3d 3bf6 f33e caf6 c63c
00000350: e6d4 aabe bc17 e9be 252b 25bd 09ca 973d
00000360: 9397 ce3e 0303 063d 0672 59bd a018 c4bd
00000370: 6da8 e53d f26b 4a3e 549d 123f e2bd cb3d
00000380: a88a f43d 70cb 9a3d 98fb d3bd d9d2 d93e
00000390: 67cb 53bd ca81 683e 0690 fe3d 11b5 11bf
000003a0: b77e 2e3e 3a97 683e 31c4 203e e778 593e
000003b0: ce9c af3e 6f2e 313f f318 f23e cf74 363e
000003c0: 2018 8e3e 5e34 9ebd 42d6 9cbd 3ff8 b63e
000003d0: 9153 3f3f 2039 7bbd 36e4 0b3e 3ef1 163f
000003e0: 5b2a f3bd aebe a03e 9e3f 913d 71f9 af3d
000003f0: 1548 3d3f 5ddc 393c bd68 69be 30d8 5b3d
0.20034388 -0.21399292 0.28756946 0.26951078 0.15140371 -0.09635826 -0.6321713 0.5140416
0.32496476 -0.15155743 0.04136583 0.4352148 0.30721623 0.22476326 0.030661568 -0.50978154
-0.25938234 0.053732365 -0.06496714 0.1494457 0.053249903 0.6281313 0.32722238 0.28954986
0.13154557 0.42238447 -0.045445994 0.24841067 -0.35051617 0.008279551 -0.17203541 -0.042606685
-0.14051895 0.31363428 -0.06041176 0.38805798 0.50602084 0.20481879 0.04433936 0.007355496
-0.030530786 0.502222 0.046735797 -0.33599427 0.40916818 0.26607648 -0.09796962 -0.03497802
0.010271845 0.42631754 0.11392871 -0.12852511 -0.4508948 0.19432668 -0.07632943 0.7122925
0.5111211 -0.19967401 0.19557522 0.28340033 0.22650512 -0.255161 -0.13906813 0.4669547
-0.2952481 -0.5624541 -0.0023545197 0.1136984 0.200202 0.27309695 -0.6621592 -0.06709347
-0.7931926 -0.59829646 0.13831908 -0.4333792 -0.5506573 0.10836606 0.09305688 -0.31781116
0.2856076 0.49757686 -0.5630873 0.20790647 0.22772308 0.37571308 0.36956275 0.2301108
-0.50016767 -0.0073944083 0.2555318 0.36318427 -0.37218282 0.024360035 -0.50609875 -0.1327358
0.15470453 -0.14868416 0.20739506 -0.5484024 -0.61206204 0.35968712 0.085601404 0.26257074
0.49444097 -0.14208804 0.07978702 -0.6403171 -0.70938945 -0.31804553 -0.51788306 0.102342054
-0.4690692 0.3982661 0.30392998 -0.59780157 -0.5622878 0.49777424 0.34594348 -0.9404572
0.58441496 -0.4749347 0.25162116 0.32572466 -0.5713549 0.45394644 0.13256629 0.483925
-0.8546144 -0.09517665 -0.5536539 0.2683361 0.0105741825 0.13709523 -0.41931084 -0.36053196
-0.76140404 -0.143767 0.19840917 -0.031174943 -0.54741603 -1.1419221 0.09897918 0.09911479
0.236143 -0.15169583 -0.10881281 0.025157554 -1.1646463 -0.07884713 0.35951138 -0.019785851
-0.9021402 -1.094743 0.08104508 0.15916006 -1.3388661 0.04528444 -0.12215373 0.10640511
-0.2673087 -0.6925157 -0.8314872 -0.56426245 -0.074104615 0.20298855 0.09910545 -0.20292138
-0.21835475 -0.03631781 0.1983504 -1.0470933 -0.9719696 -0.51019984 -0.1005165 -0.022424158
0.14525998 -0.099256456 -0.054539144 -0.86893433 0.013666994 0.16842763 -0.025153233 -0.5227592
0.3234333 -0.137669 -0.0570283 0.31380513 -0.4295967 0.0023071659 -0.07632589 0.40008137
0.12075232 0.55385303 0.3837397 0.019913921 0.11492936 0.20244744 0.52686495 0.21338207
0.5855103 0.40584058 0.30424082 0.014978396 0.5898567 -0.22235586 0.08286351 0.29566666
0.008934591 0.07533744 0.47648796 0.0242876 -0.33365554 -0.4552592 -0.04032435 0.07411582
0.40350017 0.032717716 -0.053087257 -0.09575009 0.11213765 0.1976774 0.57271314 0.09948327
0.11940509 0.07558334 -0.10350722 0.42543676 -0.05170765 0.2270576 0.12429814 -0.5691691
0.17040525 0.22713938 0.15699841 0.21237527 0.3429932 0.6921148 0.4728466 0.17817996
0.2775278 -0.07724832 -0.07658054 0.35736272 0.7473689 -0.061333776 0.13661274 0.58961856
-0.11873313 0.31395477 0.07092212 0.08592499 0.73938113 0.011344043 -0.2279386 0.05367297

net.fc2.bias f4 [64]
00000000: 6b9a ccbc 7ae0 993d 841a b3be 80a6 0c3e
00000010: af9e 003d 8496 193d e619 21bd e535 88bc
00000020: 1800 ee3c f0c7 aebd cb0e f93b 5cf3 eabd
00000030: f51a 293d 82f7 8bbd 3f66 0b3c 88e4 623e
00000040: 7c01 db3e eef2 123e d23f 363e f41b 803c
00000050: 602d 1cbe 20d8 c93e b2a4 c5bc 88b4 e6bd
00000060: 9441 b1bc f09b 0abe 8fdc c2bd b77a 6b3c
00000070: cd6c 963d 4dd9 00be b1a2 c43e 2bc3 eb3e
00000080: 54a6 5f3b a235 783d ecc3 c1bd 00f4 08be
00000090: aacf 873e a34e bd3c 7550 89be 33f8 64bd
000000a0: c821 313e 1f92 423e 31dd 483e ba45 7abe
000000b0: cb55 c6bd 92bf d33e a8fe bf3e 534b 913e
000000c0: e453 96bd 807b fabd 7c7b 163e 7cd5 36be
000000d0: cf23 6abd 542e aebe 8a51 a4bd 36a4 15be
000000e0: 2a90 7f3e 132e c13d 3a1c 583e 737d 5cbb
000000f0: 349c 15be 1a49 00bd 603f fabc 07b2 723d
-0.024975976 0.07513519 -0.34981167 0.1373539 0.031401332 0.03749706 -0.03933134 -0.016627261
0.02905278 -0.08534229 0.0076006404 -0.11472198 0.041285474 -0.06834318 0.008508264 0.2215749
0.4277457 0.14350483 0.17797783 0.01563833 -0.15251684 0.39422703 -0.024126384 -0.11264902
-0.021637715 -0.13536048 -0.095147245 0.014372519 0.07344971 -0.12582894 0.38405374 0.4604734
0.003412624 0.060598023 -0.09461197 -0.13374329 0.26525623 0.023108786 -0.26819196 -0.055900764
0.17298043 0.19001053 0.19615628 -0.24440661 -0.096843325 0.41357094 0.37498975 0.2837778
-0.073402196 -0.12230587 0.14695543 -0.17854875 -0.057163056 -0.3401972 -0.08023365 -0.14613423
0.24957338 0.09432616 0.21104518 -0.003364411 -0.14610368 -0.031319715 -0.030547798 0.05925181

net.out.weight f4 [4, 64]
00000000: b237 a0be 1e45 813f f408 f53d b2eb d9be
00000010: c621 f2be 714b 29bf 8167 883d 32a4 9f3d
00000020: b803 c7bd 4c0a 1d3d 7d7e d2be 1636 93bd
00000030: 282a a9be 98cd 1ebd 3b7d a3be 6764 823c
00000040: be2e 4d3f c7d5 943f c292 e93a 1007 05bf
00000050: 7bff 0bbf c0d2 b03e 242d a13e e02d 3bbc
00000060: 3b70 ffbe ba44 ce3d fd73 3a3e 578e 50bf
00000070: 677e 03bf 6736 17bf 8ea4 a03f 53c4 3a3f
00000080: b42b dcbe 7aa2 8dbe 8ff7 f2be dec6 a4bd
00000090: adc8 563f fed4 e5be 932c 53be 7e2e 0cbf
000000a0: 930f 19bd 9869 0d3e 8adf 8c3f 4224 15bf
000000b0: e968 263e 58d6 1e3e 130c 803f 9f05 03bf
000000c0: dd55 2abf ef07 843b c967 1ebd 5c86 a5bd
000000d0: 509b 7ebc 31ac cbbe c292 dabe caf3 b73c
000000e0: 41fe 823d 0047 803d 193f f13d 7f57 0ebf
000000f0: 83b9 bdbd f8d2 403d ad1e 7a3d 4865 0bbf
00000100: c531 b53e 8092 2e3f feb8 e33d 43a7 8cbe
00000110: 149a d8be 5c1c f8be d144 c5bb 8fef ebbc
00000120: 2afc e33d 3ed9 a3bd 2832 dfbe fc9b 35bd
00000130: 4000 56be 6b62 d0bc 0254 843e 432e 053e
00000140: 8685 013f 5c47 df3e af0b 1b3f 88d0 aebe
00000150: 85f6 e4bd e4dd 423f 2702 373e 4012 7abd
00000160: 320a 9dbe 687c 8f3d 8c11 163e 3a1d d3be
00000170: dd1f d5be f349 d8be 5c25 0f3f a8f5 443e
00000180: 7349 0bbf ba92 a03c a9ad abbe cc87 ff3d
00000190: efba 303f 45fa dcbe da4b fe3e ef69 aebe
000001a0: 97bc d2be 43bd d1be cb5c 1a3f 8a4d f13e
000001b0: 1478 37be 156b 0dbf 4b9b 193f fa52 21bf
000001c0: 400a b2be c70f 38bd 2df6 76be b60a cdbd
000001d0: 422b f33d 89ff 0040 7bca 7dbe d699 cdbb
000001e0: 87ba 793e 09d6 44bd 177c 383f 90f5 d1be
000001f0: db14 69bd 817e 163f d897 f93d e972 aebe
00000200: 8170 8cbe 2bc0 293e 6bb6 14bf a6dd 2abd
00000210: 73b7 b7bc f3eb 113e 5177 c43a 6cc7 a63d
00000220: 4c08 af3d aadd 983d 4e1b 233f c08a 0a3d
00000230: 32d8 2f3f cfdb 8ebd ce13 50be 3d37 bfbe
00000240: adb1 153f 06d6 8c3e 2c46 15bc 0b4b e6be
00000250: e08f 053f b27a a93f eb49 c5be 8880 9a3c
00000260: aa42 c4be 76fd b53d ff73 943c 7643 d1bd
00000270: e53c dfbe 5f9d 1abe 9595 d73b 4c25 923f
00000280: 80f5 133f c7be e2be 9c3e b5be 9032 4fbd
00000290: 0bff ce3e 54ba c1be ce02 693f c476 f03e
000002a0: 699b 05bf c867 ddbe c7a8 543e 4633 c33e
000002b0: a152 f7bd 3493 99be 7a27 d3bd e4e3 d0be
000002c0: 2cd9 b3be 7fff abbd ea8b cdbe c36d 01bf
000002d0: 208c 8bbf f2b2 43be a8b8 65be 8c93 3f3d
000002e0: 4e80 263f aa97 cfbe 8634 a83e ee93 58be
000002f0: 37bd 1f3d 02cb 3c3f 86e5 9f3c 4ec3 d7be
00000300: 223d 953e 8f14 e83e be1a 473d 64fe f2be
00000310: 7926 a1be 39d2 9b3e 8d27 643d a229 96bc
00000320: 5047 933c f0bc 33bd 5fa1 b73d 8012 23bb
00000330: 4df5 10be 1cb0 b1bd 0ea4 bb3e 2021 813f
00000340: c822 8f3e a205 103f efe9 d53e ab52 c4be
00000350: ea91 933e b534 873e 52a6 dbbe c548 0ebc
00000360: 1899 cbbe 5012 be3d 54d2 2bba c3fe 5d3e
00000370: 0ef0 cebe 460d a2be 6a8e 0a3f 734e b53d
00000380: d935 833c ea4b 533f 5fa9 c4be a461 9bbd
00000390: f73b e63e 41b6 95be 7192 843f 0dfd 623e
000003a0: 57a3 a7be 4ecd 12bf 2ac9 cb3e 375f b1bd
000003b0: fc44 8b3e 1c7a 3bbf 67c3 0640 472b 0bbf
000003c0: b13d 75be d186 c63d cc48 1abf cd25 ddbe
000003d0: 4608 493f 6297 443f 6781 f7be 40c0 763c
000003e0: 806c 1f3f 6d9d 81be dc11 b23e e9c9 c6be
000003f0: 5855 123d e106 e83d e0e7 7b3d 6135 14be
-0.31292492 1.0099218 0.11964598 -0.42562634 -0.47291392 -0.6613074 0.06660367 0.0779499
-0.09717506 0.038339898 -0.41112128 -0.071880504 -0.33039975 -0.03877029 -0.3193148 0.015917016
0.8014945 1.162774 0.0017820226 -0.519639 -0.5468671 0.3453579 0.31479752 -0.011424512
-0.49890313 0.10071702 0.18208309 -0.81467193 -0.5136475 -0.59067386 1.2550218 0.72955817
-0.43002093 -0.27663022 -0.47454497 -0.080457434 0.83899957 -0.44889063 -0.20622472 -0.5475844
-0.03736837 0.13809812 1.1005719 -0.5825845 0.16250958 0.15511453 1.0003685 -0.5118045
-0.66537267 0.004029266 -0.038673196 -0.08082268 -0.015539959 -0.3977981 -0.42690092 0.022455115
0.06396151 0.06263542 0.11779613 -0.5560226 -0.09263899 0.047076195 0.06106441 -0.5445142
0.35389534 0.6819229 0.11119269 -0.2747136 -0.42305052 -0.48459136 -0.0060201664 -0.028800754
0.11132081 -0.0800042 -0.43592954 -0.04433821 -0.20898533 -0.025437554 0.25845343 0.13005929
0.50594366 0.4360913 0.605647 -0.34143472 -0.11179832 0.7611983 0.17871915 -0.06105256
-0.3067184 0.070061505 0.14655131 -0.41233236 -0.41625872 -0.4224392 0.5591638 0.19234335
-0.5440895 0.019601215 -0.3353093 0.12477073 0.6903524 -0.4315969 0.49667245 -0.34065196
-0.41159508 -0.40964708 0.6029784 0.4712947 -0.179169 -0.5524152 0.60002583 -0.6301724
-0.34773445 -0.04493692 -0.24117346 -0.100118086 0.11873485 2.0155966 -0.24784271 -0.006274442
0.24387561 -0.048055682 0.72064346 -0.41007662 -0.056904655 0.5878678 0.12187165 -0.34072044
-0.27429584 0.16577213 -0.5809085 -0.041715287 -0.022426343 0.14250164 0.0014989172 0.081435055
0.085465044 0.07464154 0.6371354 0.03382373 0.6868926 -0.06975519 -0.20320055 -0.3734683
0.58474237 0.27507037 -0.009110969 -0.44979128 0.5217266 1.3240569 -0.38532957 0.018860117
-0.3833211 0.088862345 0.018121717 -0.10217945 -0.43601146 -0.15099095 0.006579111 1.1417632
0.5779648 -0.44286177 -0.3539933 -0.05058533 0.40428957 -0.3783747 0.91019905 0.4696561
-0.5219026 -0.4324324 0.20767508 0.38125056 -0.12076307 -0.2999512 -0.10310264 -0.40798867
-0.35126626 -0.083983414 -0.40145808 -0.5055811 -1.0902138 -0.19111231 -0.22433722 0.04677157
0.6503953 -0.40545398 0.32852572 -0.2115018 0.03899881 0.73747265 0.019518625 -0.42141193
0.29148203 0.45328185 0.048609488 -0.4745971 -0.31474665 0.30433825 0.05570178 -0.018330399
0.01797834 -0.043881357 0.08966326 -0.0024882853 -0.14156075 -0.08676168 0.366486 1.0088234
0.27956223 0.56258595 0.4178004 -0.3834432 0.2882226 0.264074 -0.4290033 -0.008684342
-0.3976524 0.092808366 -0.00065544737 0.21679215 -0.40417522 -0.31650752 0.54123557 0.088528536
0.016016888 0.8253771 -0.3841047 -0.07586983 0.44967625 -0.2924061 1.035719 0.22166844
-0.32741806 -0.5734452 0.39801913 -0.08660739 0.27201068 -0.732332 2.1056764 -0.5436291
-0.23949315 0.09693683 -0.6026733 -0.43192902 0.7852825 0.7679349 -0.48340914 0.015060484
0.6227493 -0.2531542 0.3477925 -0.3882592 0.03572592 0.11329437 0.06150043 -0.14473487

net.out.bias f4 [4]
00000000: ccb4 253e 5281 ccbd 9dc5 e13d 2e4e c4bc
0.1618225 -0.099856034 0.1102402 -0.02396306

net.0.weight f4 [128, 8]
00000000: d488 b13e 9012 b43d 3535 643d ec62 90be
00000010: 756b 513e 7422 00be 2a36 2fbe 3628 663e
00000020: f550 923e ab1c 9c3e 7ed5 993d 8626 803d
00000030: 7687 35be ccbe 7c3e 2636 00bd cf22 12be
00000040: 5803 273e 9c6b a03e 13ec 89bd 0cee 12bd
00000050: 42bc d53b 1394 a1be f93a 7ebe b0fc a43d
00000060: 7181 b1be 7a7b 9b3a 6577 713d 5eaf 543e
00000070: 3ba9 01be 8bb5 e5bd e737 71bd 6aed 0abe
00000080: 4544 08bd 3393 13bb e3cb 8f3e 01ca 93be
00000090: b4f5 ce3c 4726 6c3e 108d 34bd e1f1 34be
000000a0: 0f9f ab3d de9a a53e 27a7 83be 0689 333e
000000b0: a9dc 39be 5301 febc d592 adbe 5dcf 89be
000000c0: 93c0 7b3e 0dc9 dbbc 5a66 a9bb a76a b73d
000000d0: 6b4d a13e b4a0 df3b d410 9abe 266b 753e
000000e0: 20ad 82be 5670 43be 2449 8fbc 3065 44be
000000f0: 0e32 a43e b2fa 863e f288 8f3e 409d 233d
00000100: 1d8b 393e ca69 58be 1437 aebe 260f a23e
00000110: 5056 8a3e a9eb 7c3e 2026 c4bc 1870 703d
00000120: 4e0e 923e 5c91 95be 5720 18be 7e81 033e
00000130: 9de7 993e 51e9 60be b2fd ad3e 9c6e 3dbe
00000140: b090 613e a55d d7bd 0e1e 653e 243d 8b3e
00000150: 72af 7ebe 23e0 25be 9b6a 983e 4128 a73e
00000160: 77e5 113d 5dc1 043e a8f7 853c 6147 7e3d
00000170: e214 333e 69a8 aabe 43ff 0ebd d037 863c
00000180: 8839 87be ef65 2a3e 77e1 85bd c3a4 7dbe
00000190: 5766 003e 2200 a23d 6f4f a6be f083 f13c
000001a0: 9ce4 c2bd ebbf a33e 28c3 52be 87fb 743e
000001b0: 2856 cfbd 0436 a73e 27f1 40be 1275 a1be
000001c0: cfab 2fbe 536a b4be d366 583d ace0 31be
000001d0: a04f 493d 9380 97bd f36c 51be 71ec 943e
000001e0: ef36 3f3d 240a 803e 659b d23d 9c2c 273e
000001f0: a3f7 9f3e 6efc 9e3e 3ead 0bbe 7a00 683e
00000200: a7f7 50bd 7936 9d3e 41a0 27be 307e 96be
00000210: 9ae9 5dbd 8ff9 a5bc b6f3 5ebe 9f42 5dbe
00000220: 82ce d5bd b870 923b 9647 abbe d796 e73d
00000230: e023 a2be 6adf ad3e 50d7 f4bd 3774 47be
00000240: 364d e8bd 8d31 9a3e 45c6 84be d30e 983d
00000250: 6009 063e 12d2 25be d049 1dbd 97a1 1dbe
00000260: d882 04be 6d22 4f3e ca46 823e 6a11 103e
00000270: cc45 22be 7652 123e 49b9 473e 5880 0cbd
00000280: 50cb 323d 4adf ac3e 1f48 5abe 2b73 83be
00000290: c808 9a3e 1e74 ce3b 80b5 29be 6613 77be
000002a0: fd43 9abe 04ba 9ebe 8643 a9be 667d 29be
000002b0: df19 973d 3453 7bbe ff1f ae3e 8cec ef3d
000002c0: a903 b6bd 6c0e a93e 0d5c 0f3e d535 5d3e
000002d0: 08db b2be 0e53 683d 6d05 a33e d4de 37be
000002e0: 7ca1 693e af5f 5cbd fd76 88be 8989 20bd
000002f0: 30af b13d 471f 853e a89b 06be fa04 7d3e
00000300: 34b9 a93e 73cf aa3c dfc2 803d 162b 30be
00000310: a08d 5bbd 7258 30be 1a9d be3d 023b 093e
00000320: 4453 27bd 315b 2cbe cf63 4e3b 10a5 303e
00000330: 34e6 96be bfd6 62be 565e c6bd 8d74 a7be
00000340: fc64 85be 9c7e 553e ffaf 3bbe 5567 34be
00000350: e515 a9be a258 b53d 204c e93c a4ad cfbd
00000360: 6bbb a0be 090b 95be 4e64 0cbd 6bb7 14be
00000370: d63a 773d 3ea7 3abe 561f 53bd ca63 e7bd
00000380: 315b 9cbe 5516 5bbe 4307 8f3e dca5 373d
00000390: 33e8 54be 7032 30be 9818 adbe 00ad e33d
000003a0: 824e a33e b148 b1be 1da8 b2be 5892 633e
000003b0: bd11 913e 1ec7 a7bd 30b1 a5be 761c a1be
000003c0: 1768 823e df0e c23d 800e 5abe 2481 fdbd
000003d0: c178 5abe b79b 273e 0b85 223e b64b 66be
000003e0: ad80 4abd 39d0 3c3d 80b0 8f3e 61f0 8b3d
000003f0: 9670 cf3d b2be 953d 6083 9cbe 1f35 a83e
0.34674704 0.08792603 0.055714805 -0.2820047 0.20451148 -0.12513143 -0.17110506 0.22476277
0.2857739 0.30490622 0.075114235 0.06257348 -0.17727455 0.24682158 -0.03130164 -0.14271091
0.1630987 0.313321 -0.06734481 -0.03587155 0.006522686 -0.31558284 -0.24827184 0.08056009
-0.34669068 0.001186236 0.058951754 0.20770022 -0.12662213 -0.11216267 -0.058891203 -0.13567129
-0.033268232 -0.0022518157 0.2808524 -0.28865054 0.025263645 0.23061477 -0.04407984 -0.17670394
0.083799474 0.32344717 -0.25713465 0.17532739 -0.18150581 -0.03100649 -0.33901086 -0.26916018
0.2458518 -0.026829267 -0.005169672 0.08955889 0.31504378 0.006824577 -0.30090964 0.23966655
-0.2552271 -0.19085822 -0.01749093 -0.19179225 0.3206944 0.2636314 0.28034168 0.039944887
0.18119474 -0.21134105 -0.34026396 0.31652182 0.27018976 0.24699272 -0.02394396 0.05870065
0.2852654 -0.29212463 -0.14856087 0.12842366 0.3005952 -0.21964003 0.33982617 -0.18499225
0.2202785 -0.10515908 0.22374746 0.27195084 -0.24871615 -0.16198783 0.29768834 0.326479
0.035619225 0.12964387 0.016353443 0.06207979 0.17488435 -0.33331612 -0.034911405 0.016384035
-0.2641108 0.16640447 -0.06537145 -0.24769883 0.1253904 0.079101816 -0.32482478 0.029481858
-0.0951626 0.3198236 -0.20582259 0.23924075 -0.10123855 0.32658398 -0.18841992 -0.3153463
-0.17155384 -0.3523737 0.052832436 -0.17370862 0.049148202 -0.073975705 -0.20451717 0.2908664
0.046683248 0.25007737 0.102835454 0.16325611 0.3124362 0.31051964 -0.13640305 0.22656432
-0.05101743 0.30705622 -0.16369726 -0.29393148 -0.054177858 -0.0202606 -0.21772656 -0.21607445
-0.10439779 0.0044690035 -0.33453053 0.11308067 -0.31667995 0.33959514 -0.1195513 -0.19477926
-0.11342852 0.3011593 -0.25932518 0.074247025 0.13089514 -0.16193417 -0.03840047 -0.15393673
-0.12940538 0.20227976 0.25444633 0.14069143 -0.15846938 0.14289269 0.19504274 -0.034302086
0.043650925 0.33764106 -0.21316575 -0.25673804 0.30084825 0.0063004633 -0.16573143 -0.24128494
-0.30129996 -0.31001294 -0.3305933 -0.16551742 0.073779814 -0.24543458 0.34008786 0.117150396
-0.08887417 0.33018816 0.13999958 0.21602567 -0.34932733 0.056719832 0.31840077 -0.17956096
0.22815508 -0.05380219 -0.2665328 -0.039193664 0.086759925 0.26000425 -0.13145316 0.2470893
0.3314911 0.020850873 0.06287169 -0.17203936 -0.05360186 -0.17221239 0.093073085 0.13401416
-0.040850893 -0.16831662 0.0031492596 0.17250466 -0.29472506 -0.22152232 -0.09685962 -0.3270611
-0.26053607 0.20849079 -0.18328856 -0.17617543 -0.33024517 0.08854796 0.028478682 -0.10140541
-0.3139299 -0.29109982 -0.034275346 -0.14523093 0.060358845 -0.1822786 -0.051543556 -0.1129833
-0.30538324 -0.21395238 0.27935228 0.04483591 -0.20791702 -0.1720674 -0.33807826 0.111169815
0.31895834 -0.34625772 -0.34893885 0.22223794 0.28333846 -0.081922755 -0.32361746 -0.31467026
0.2547004 0.09475493 -0.21294594 -0.12378147 -0.21335126 0.16367994 0.15871064 -0.22489819
-0.04943912 0.046097014 0.28064346 0.06832958 0.10128896 0.07311763 -0.3056898 0.32853028
